…
        "model = Model(inputs=[input], outputs=[output])\n",
        "model.summary()"
      ],
      "execution_count": 0,
      "outputs": [
        {
          "output_type": "stream",
          "text": [
            "__________________________________________________________________________________________________\n",
            "Layer (type)                    Output Shape         Param #     Connected to                     \n",
            "==================================================================================================\n",
            "input_1 (InputLayer)            (None, 32, 32, 3)    0                                            \n",
            "__________________________________________________________________________________________________\n",
            "batch_normalization_1 (BatchNor (None, 32, 32, 3)    12          input_1[0][0]                    \n",
            "__________________________________________________________________________________________________\n",
            "activation_1 (Activation)       (None, 32, 32, 3)    0           batch_normalization_1[0][0]      \n",
            "__________________________________________________________________________________________________\n",
            "conv2d_1 (Conv2D)               (None, 32, 32, 24)   648         activation_1[0][0]               \n",
            "__________________________________________________________________________________________________\n",
            "batch_normalization_2 (BatchNor (None, 32, 32, 24)   96          conv2d_1[0][0]                   \n",
            "__________________________________________________________________________________________________\n",
            "activation_2 (Activation)       (None, 32, 32, 24)   0           batch_normalization_2[0][0]      \n",
            "__________________________________________________________________________________________________\n",
            "conv2d_2 (Conv2D)               (None, 32, 32, 12)   2592        activation_2[0][0]               \n",
            "__________________________________________________________________________________________________\n",
            "dropout_1 (Dropout)             (None, 32, 32, 12)   0           conv2d_2[0][0]                   \n",
            "__________________________________________________________________________________________________\n",
            "concatenate_1 (Concatenate)     (None, 32, 32, 36)   0           conv2d_1[0][0]                   \n",
            "                                                                 dropout_1[0][0]                  \n",
            "__________________________________________________________________________________________________\n",
            "batch_normalization_3 (BatchNor (None, 32, 32, 36)   144         concatenate_1[0][0]              \n",
            "__________________________________________________________________________________________________\n",
            "activation_3 (Activation)       (None, 32, 32, 36)   0           batch_normalization_3[0][0]      \n",
            "__________________________________________________________________________________________________\n",
            "conv2d_3 (Conv2D)               (None, 32, 32, 12)   3888        activation_3[0][0]               \n",
            "__________________________________________________________________________________________________\n",
            "dropout_2 (Dropout)             (None, 32, 32, 12)   0           conv2d_3[0][0]                   \n",
            "__________________________________________________________________________________________________\n",
            "concatenate_2 (Concatenate)     (None, 32, 32, 48)   0           concatenate_1[0][0]              \n",
            "                                                                 dropout_2[0][0]                  \n",
            "__________________________________________________________________________________________________\n",
            "batch_normalization_4 (BatchNor (None, 32, 32, 48)   192         concatenate_2[0][0]              \n",
            "__________________________________________________________________________________________________\n",
            "activation_4 (Activation)       (None, 32, 32, 48)   0           batch_normalization_4[0][0]      \n",
            "__________________________________________________________________________________________________\n",
            "conv2d_4 (Conv2D)               (None, 32, 32, 12)   5184        activation_4[0][0]               \n",
            "__________________________________________________________________________________________________\n",
            "dropout_3 (Dropout)             (None, 32, 32, 12)   0           conv2d_4[0][0]                   \n",
            "__________________________________________________________________________________________________\n",
            "concatenate_3 (Concatenate)     (None, 32, 32, 60)   0           concatenate_2[0][0]              \n",
            "                                                                 dropout_3[0][0]                  \n",
            "__________________________________________________________________________________________________\n",
            "batch_normalization_5 (BatchNor (None, 32, 32, 60)   240         concatenate_3[0][0]              \n",
            "__________________________________________________________________________________________________\n",
            "activation_5 (Activation)       (None, 32, 32, 60)   0           batch_normalization_5[0][0]      \n",
            "__________________________________________________________________________________________________\n",
            "conv2d_5 (Conv2D)               (None, 32, 32, 12)   6480        activation_5[0][0]               \n",
            "__________________________________________________________________________________________________\n",
            "dropout_4 (Dropout)             (None, 32, 32, 12)   0           conv2d_5[0][0]                   \n",
            "__________________________________________________________________________________________________\n",
            "concatenate_4 (Concatenate)     (None, 32, 32, 72)   0           concatenate_3[0][0]              \n",
            "                                                                 dropout_4[0][0]                  \n",
            "__________________________________________________________________________________________________\n",
            "batch_normalization_6 (BatchNor (None, 32, 32, 72)   288         concatenate_4[0][0]              \n",
            "__________________________________________________________________________________________________\n",
            "activation_6 (Activation)       (None, 32, 32, 72)   0           batch_normalization_6[0][0]      \n",
            "__________________________________________________________________________________________________\n",
            "conv2d_6 (Conv2D)               (None, 32, 32, 12)   7776        activation_6[0][0]               \n",
            "__________________________________________________________________________________________________\n",
            "dropout_5 (Dropout)             (None, 32, 32, 12)   0           conv2d_6[0][0]                   \n",
            "__________________________________________________________________________________________________\n",
            "concatenate_5 (Concatenate)     (None, 32, 32, 84)   0           concatenate_4[0][0]              \n",
            "                                                                 dropout_5[0][0]                  \n",
            "__________________________________________________________________________________________________\n",
            "batch_normalization_7 (BatchNor (None, 32, 32, 84)   336         concatenate_5[0][0]              \n",
            "__________________________________________________________________________________________________\n",
            "activation_7 (Activation)       (None, 32, 32, 84)   0           batch_normalization_7[0][0]      \n",
            "__________________________________________________________________________________________________\n",
            "conv2d_7 (Conv2D)               (None, 32, 32, 12)   9072        activation_7[0][0]               \n",
            "__________________________________________________________________________________________________\n",
            "dropout_6 (Dropout)             (None, 32, 32, 12)   0           conv2d_7[0][0]                   \n",
            "__________________________________________________________________________________________________\n",
            "concatenate_6 (Concatenate)     (None, 32, 32, 96)   0           concatenate_5[0][0]              \n",
            "                                                                 dropout_6[0][0]                  \n",
            "__________________________________________________________________________________________________\n",
            "batch_normalization_8 (BatchNor (None, 32, 32, 96)   384         concatenate_6[0][0]              \n",
            "__________________________________________________________________________________________________\n",
            "activation_8 (Activation)       (None, 32, 32, 96)   0           batch_normalization_8[0][0]      \n",
            "__________________________________________________________________________________________________\n",
            "conv2d_8 (Conv2D)               (None, 32, 32, 12)   10368       activation_8[0][0]               \n",
            "__________________________________________________________________________________________________\n",
            "dropout_7 (Dropout)             (None, 32, 32, 12)   0           conv2d_8[0][0]                   \n",
            "__________________________________________________________________________________________________\n",
            "concatenate_7 (Concatenate)     (None, 32, 32, 108)  0           concatenate_6[0][0]              \n",
            "                                                                 dropout_7[0][0]                  \n",
            "__________________________________________________________________________________________________\n",
            "batch_normalization_9 (BatchNor (None, 32, 32, 108)  432         concatenate_7[0][0]              \n",
            "__________________________________________________________________________________________________\n",
            "activation_9 (Activation)       (None, 32, 32, 108)  0           batch_normalization_9[0][0]      \n",
            "__________________________________________________________________________________________________\n",
            "conv2d_9 (Conv2D)               (None, 32, 32, 12)   11664       activation_9[0][0]               \n",
            "__________________________________________________________________________________________________\n",
            "dropout_8 (Dropout)             (None, 32, 32, 12)   0           conv2d_9[0][0]                   \n",
            "__________________________________________________________________________________________________\n",
            "concatenate_8 (Concatenate)     (None, 32, 32, 120)  0           concatenate_7[0][0]              \n",
            "                                                                 dropout_8[0][0]                  \n",
            "__________________________________________________________________________________________________\n",
            "batch_normalization_10 (BatchNo (None, 32, 32, 120)  480         concatenate_8[0][0]              \n",
            "__________________________________________________________________________________________________\n",
            "activation_10 (Activation)      (None, 32, 32, 120)  0           batch_normalization_10[0][0]     \n",
            "__________________________________________________________________________________________________\n",
            "conv2d_10 (Conv2D)              (None, 32, 32, 12)   12960       activation_10[0][0]              \n",
            "__________________________________________________________________________________________________\n",
            "dropout_9 (Dropout)             (None, 32, 32, 12)   0           conv2d_10[0][0]                  \n",
            "__________________________________________________________________________________________________\n",
            "concatenate_9 (Concatenate)     (None, 32, 32, 132)  0           concatenate_8[0][0]              \n",
            "                                                                 dropout_9[0][0]                  \n",
            "__________________________________________________________________________________________________\n",
            "batch_normalization_11 (BatchNo (None, 32, 32, 132)  528         concatenate_9[0][0]              \n",
            "__________________________________________________________________________________________________\n",
            "activation_11 (Activation)      (None, 32, 32, 132)  0           batch_normalization_11[0][0]     \n",
            "__________________________________________________________________________________________________\n",
            "conv2d_11 (Conv2D)              (None, 32, 32, 12)   14256       activation_11[0][0]              \n",
            "__________________________________________________________________________________________________\n",
            "dropout_10 (Dropout)            (None, 32, 32, 12)   0           conv2d_11[0][0]                  \n",
            "__________________________________________________________________________________________________\n",
            "concatenate_10 (Concatenate)    (None, 32, 32, 144)  0           concatenate_9[0][0]              \n",
            "                                                                 dropout_10[0][0]                 \n",
            "__________________________________________________________________________________________________\n",
            "batch_normalization_12 (BatchNo (None, 32, 32, 144)  576         concatenate_10[0][0]             \n",
            "__________________________________________________________________________________________________\n",
            "activation_12 (Activation)      (None, 32, 32, 144)  0           batch_normalization_12[0][0]     \n",
            "__________________________________________________________________________________________________\n",
            "conv2d_12 (Conv2D)              (None, 32, 32, 12)   15552       activation_12[0][0]              \n",
            "__________________________________________________________________________________________________\n",
            "dropout_11 (Dropout)            (None, 32, 32, 12)   0           conv2d_12[0][0]                  \n",
            "__________________________________________________________________________________________________\n",
            "concatenate_11 (Concatenate)    (None, 32, 32, 156)  0           concatenate_10[0][0]             \n",
            "                                                                 dropout_11[0][0]                 \n",
            "__________________________________________________________________________________________________\n",
            "batch_normalization_13 (BatchNo (None, 32, 32, 156)  624         concatenate_11[0][0]             \n",
            "__________________________________________________________________________________________________\n",
            "activation_13 (Activation)      (None, 32, 32, 156)  0           batch_normalization_13[0][0]     \n",
            "__________________________________________________________________________________________________\n",
            "conv2d_13 (Conv2D)              (None, 32, 32, 12)   16848       activation_13[0][0]              \n",
            "__________________________________________________________________________________________________\n",
            "dropout_12 (Dropout)            (None, 32, 32, 12)   0           conv2d_13[0][0]                  \n",
            "__________________________________________________________________________________________________\n",
            "concatenate_12 (Concatenate)    (None, 32, 32, 168)  0           concatenate_11[0][0]             \n",
            "                                                                 dropout_12[0][0]                 \n",
            "__________________________________________________________________________________________________\n",
            "batch_normalization_14 (BatchNo (None, 32, 32, 168)  672         concatenate_12[0][0]             \n",
            "__________________________________________________________________________________________________\n",
            "activation_14 (Activation)      (None, 32, 32, 168)  0           batch_normalization_14[0][0]     \n",
            "__________________________________________________________________________________________________\n",
            "conv2d_14 (Conv2D)              (None, 32, 32, 12)   18144       activation_14[0][0]              \n",
            "__________________________________________________________________________________________________\n",
            "dropout_13 (Dropout)            (None, 32, 32, 12)   0           conv2d_14[0][0]                  \n",
            "__________________________________________________________________________________________________\n",
            "concatenate_13 (Concatenate)    (None, 32, 32, 180)  0           concatenate_12[0][0]             \n",
            "                                                                 dropout_13[0][0]                 \n",
            "__________________________________________________________________________________________________\n",
            "batch_normalization_15 (BatchNo (None, 32, 32, 180)  720         concatenate_13[0][0]             \n",
            "__________________________________________________________________________________________________\n",
            "activation_15 (Activation)      (None, 32, 32, 180)  0           batch_normalization_15[0][0]     \n",
            "__________________________________________________________________________________________________\n",
            "conv2d_15 (Conv2D)              (None, 32, 32, 12)   19440       activation_15[0][0]              \n",
            "__________________________________________________________________________________________________\n",
            "dropout_14 (Dropout)            (None, 32, 32, 12)   0           conv2d_15[0][0]                  \n",
            "__________________________________________________________________________________________________\n",
            "concatenate_14 (Concatenate)    (None, 32, 32, 192)  0           concatenate_13[0][0]             \n",
            "                                                                 dropout_14[0][0]                 \n",
            "__________________________________________________________________________________________________\n",
            "batch_normalization_16 (BatchNo (None, 32, 32, 192)  768         concatenate_14[0][0]             \n",
            "__________________________________________________________________________________________________\n",
            "activation_16 (Activation)      (None, 32, 32, 192)  0           batch_normalization_16[0][0]     \n",
            "__________________________________________________________________________________________________\n",
            "conv2d_16 (Conv2D)              (None, 32, 32, 12)   20736       activation_16[0][0]              \n",
            "__________________________________________________________________________________________________\n",
            "dropout_15 (Dropout)            (None, 32, 32, 12)   0           conv2d_16[0][0]                  \n",
            "__________________________________________________________________________________________________\n",
            "concatenate_15 (Concatenate)    (None, 32, 32, 204)  0           concatenate_14[0][0]             \n",
            "                                                                 dropout_15[0][0]                 \n",
            "__________________________________________________________________________________________________\n",
            "batch_normalization_17 (BatchNo (None, 32, 32, 204)  816         concatenate_15[0][0]             \n",
            "__________________________________________________________________________________________________\n",
            "activation_17 (Activation)      (None, 32, 32, 204)  0           batch_normalization_17[0][0]     \n",
            "__________________________________________________________________________________________________\n",
            "conv2d_17 (Conv2D)              (None, 32, 32, 12)   22032       activation_17[0][0]              \n",
            "__________________________________________________________________________________________________\n",
            "dropout_16 (Dropout)            (None, 32, 32, 12)   0           conv2d_17[0][0]                  \n",
            "__________________________________________________________________________________________________\n",
            "concatenate_16 (Concatenate)    (None, 32, 32, 216)  0           concatenate_15[0][0]             \n",
            "                                                                 dropout_16[0][0]                 \n",
            "__________________________________________________________________________________________________\n",
            "batch_normalization_18 (BatchNo (None, 32, 32, 216)  864         concatenate_16[0][0]             \n",
            "__________________________________________________________________________________________________\n",
            "activation_18 (Activation)      (None, 32, 32, 216)  0           batch_normalization_18[0][0]     \n",
            "__________________________________________________________________________________________________\n",
            "conv2d_18 (Conv2D)              (None, 32, 32, 12)   23328       activation_18[0][0]              \n",
            "__________________________________________________________________________________________________\n",
            "dropout_17 (Dropout)            (None, 32, 32, 12)   0           conv2d_18[0][0]                  \n",
            "__________________________________________________________________________________________________\n",
            "concatenate_17 (Concatenate)    (None, 32, 32, 228)  0           concatenate_16[0][0]             \n",
            "                                                                 dropout_17[0][0]                 \n",
            "__________________________________________________________________________________________________\n",
            "batch_normalization_19 (BatchNo (None, 32, 32, 228)  912         concatenate_17[0][0]             \n",
            "__________________________________________________________________________________________________\n",
            "activation_19 (Activation)      (None, 32, 32, 228)  0           batch_normalization_19[0][0]     \n",
            "__________________________________________________________________________________________________\n",
            "conv2d_19 (Conv2D)              (None, 32, 32, 12)   24624       activation_19[0][0]              \n",
            "__________________________________________________________________________________________________\n",
            "dropout_18 (Dropout)            (None, 32, 32, 12)   0           conv2d_19[0][0]                  \n",
            "__________________________________________________________________________________________________\n",
            "concatenate_18 (Concatenate)    (None, 32, 32, 240)  0           concatenate_17[0][0]             \n",
            "                                                                 dropout_18[0][0]                 \n",
            "__________________________________________________________________________________________________\n",
            "batch_normalization_20 (BatchNo (None, 32, 32, 240)  960         concatenate_18[0][0]             \n",
            "__________________________________________________________________________________________________\n",
            "activation_20 (Activation)      (None, 32, 32, 240)  0           batch_normalization_20[0][0]     \n",
            "__________________________________________________________________________________________________\n",
            "conv2d_20 (Conv2D)              (None, 32, 32, 12)   25920       activation_20[0][0]              \n",
            "__________________________________________________________________________________________________\n",
            "dropout_19 (Dropout)            (None, 32, 32, 12)   0           conv2d_20[0][0]                  \n",
            "__________________________________________________________________________________________________\n",
            "concatenate_19 (Concatenate)    (None, 32, 32, 252)  0           concatenate_18[0][0]             \n",
            "                                                                 dropout_19[0][0]                 \n",
            "__________________________________________________________________________________________________\n",
            "batch_normalization_21 (BatchNo (None, 32, 32, 252)  1008        concatenate_19[0][0]             \n",
            "__________________________________________________________________________________________________\n",
            "activation_21 (Activation)      (None, 32, 32, 252)  0           batch_normalization_21[0][0]     \n",
            "__________________________________________________________________________________________________\n",
            "conv2d_21 (Conv2D)              (None, 32, 32, 12)   27216       activation_21[0][0]              \n",
            "__________________________________________________________________________________________________\n",
            "dropout_20 (Dropout)            (None, 32, 32, 12)   0           conv2d_21[0][0]                  \n",
            "__________________________________________________________________________________________________\n",
            "concatenate_20 (Concatenate)    (None, 32, 32, 264)  0           concatenate_19[0][0]             \n",
            "                                                                 dropout_20[0][0]                 \n",
            "__________________________________________________________________________________________________\n",
            "batch_normalization_22 (BatchNo (None, 32, 32, 264)  1056        concatenate_20[0][0]             \n",
            "__________________________________________________________________________________________________\n",
            "activation_22 (Activation)      (None, 32, 32, 264)  0           batch_normalization_22[0][0]     \n",
            "__________________________________________________________________________________________________\n",
            "conv2d_22 (Conv2D)              (None, 32, 32, 12)   28512       activation_22[0][0]              \n",
            "__________________________________________________________________________________________________\n",
            "dropout_21 (Dropout)            (None, 32, 32, 12)   0           conv2d_22[0][0]                  \n",
            "__________________________________________________________________________________________________\n",
            "concatenate_21 (Concatenate)    (None, 32, 32, 276)  0           concatenate_20[0][0]             \n",
            "                                                                 dropout_21[0][0]                 \n",
            "__________________________________________________________________________________________________\n",
            "batch_normalization_23 (BatchNo (None, 32, 32, 276)  1104        concatenate_21[0][0]             \n",
            "__________________________________________________________________________________________________\n",
            "activation_23 (Activation)      (None, 32, 32, 276)  0           batch_normalization_23[0][0]     \n",
            "__________________________________________________________________________________________________\n",
            "conv2d_23 (Conv2D)              (None, 32, 32, 12)   29808       activation_23[0][0]              \n",
            "__________________________________________________________________________________________________\n",
            "dropout_22 (Dropout)            (None, 32, 32, 12)   0           conv2d_23[0][0]                  \n",
            "__________________________________________________________________________________________________\n",
            "concatenate_22 (Concatenate)    (None, 32, 32, 288)  0           concatenate_21[0][0]             \n",
            "                                                                 dropout_22[0][0]                 \n",
            "__________________________________________________________________________________________________\n",
            "batch_normalization_24 (BatchNo (None, 32, 32, 288)  1152        concatenate_22[0][0]             \n",
            "__________________________________________________________________________________________________\n",
            "activation_24 (Activation)      (None, 32, 32, 288)  0           batch_normalization_24[0][0]     \n",
            "__________________________________________________________________________________________________\n",
            "conv2d_24 (Conv2D)              (None, 32, 32, 12)   31104       activation_24[0][0]              \n",
            "__________________________________________________________________________________________________\n",
            "dropout_23 (Dropout)            (None, 32, 32, 12)   0           conv2d_24[0][0]                  \n",
            "__________________________________________________________________________________________________\n",
            "concatenate_23 (Concatenate)    (None, 32, 32, 300)  0           concatenate_22[0][0]             \n",
            "                                                                 dropout_23[0][0]                 \n",
            "__________________________________________________________________________________________________\n",
            "batch_normalization_25 (BatchNo (None, 32, 32, 300)  1200        concatenate_23[0][0]             \n",
            "__________________________________________________________________________________________________\n",
            "activation_25 (Activation)      (None, 32, 32, 300)  0           batch_normalization_25[0][0]     \n",
            "__________________________________________________________________________________________________\n",
            "conv2d_25 (Conv2D)              (None, 32, 32, 12)   32400       activation_25[0][0]              \n",
            "__________________________________________________________________________________________________\n",
            "dropout_24 (Dropout)            (None, 32, 32, 12)   0           conv2d_25[0][0]                  \n",
            "__________________________________________________________________________________________________\n",
            "concatenate_24 (Concatenate)    (None, 32, 32, 312)  0           concatenate_23[0][0]             \n",
            "                                                                 dropout_24[0][0]                 \n",
            "__________________________________________________________________________________________________\n",
            "batch_normalization_26 (BatchNo (None, 32, 32, 312)  1248        concatenate_24[0][0]             \n",
            "__________________________________________________________________________________________________\n",
            "activation_26 (Activation)      (None, 32, 32, 312)  0           batch_normalization_26[0][0]     \n",
            "__________________________________________________________________________________________________\n",
            "conv2d_26 (Conv2D)              (None, 32, 32, 12)   33696       activation_26[0][0]              \n",
            "__________________________________________________________________________________________________\n",
            "dropout_25 (Dropout)            (None, 32, 32, 12)   0           conv2d_26[0][0]                  \n",
            "__________________________________________________________________________________________________\n",
            "concatenate_25 (Concatenate)    (None, 32, 32, 324)  0           concatenate_24[0][0]             \n",
            "                                                                 dropout_25[0][0]                 \n",
            "__________________________________________________________________________________________________\n",
            "batch_normalization_27 (BatchNo (None, 32, 32, 324)  1296        concatenate_25[0][0]             \n",
            "__________________________________________________________________________________________________\n",
            "activation_27 (Activation)      (None, 32, 32, 324)  0           batch_normalization_27[0][0]     \n",
            "__________________________________________________________________________________________________\n",
            "conv2d_27 (Conv2D)              (None, 32, 32, 12)   34992       activation_27[0][0]              \n",
            "__________________________________________________________________________________________________\n",
            "dropout_26 (Dropout)            (None, 32, 32, 12)   0           conv2d_27[0][0]                  \n",
            "__________________________________________________________________________________________________\n",
            "concatenate_26 (Concatenate)    (None, 32, 32, 336)  0           concatenate_25[0][0]             \n",
            "                                                                 dropout_26[0][0]                 \n",
            "__________________________________________________________________________________________________\n",
            "batch_normalization_28 (BatchNo (None, 32, 32, 336)  1344        concatenate_26[0][0]             \n",
            "__________________________________________________________________________________________________\n",
            "activation_28 (Activation)      (None, 32, 32, 336)  0           batch_normalization_28[0][0]     \n",
            "__________________________________________________________________________________________________\n",
            "conv2d_28 (Conv2D)              (None, 32, 32, 12)   36288       activation_28[0][0]              \n",
            "__________________________________________________________________________________________________\n",
            "dropout_27 (Dropout)            (None, 32, 32, 12)   0           conv2d_28[0][0]                  \n",
            "__________________________________________________________________________________________________\n",
            "concatenate_27 (Concatenate)    (None, 32, 32, 348)  0           concatenate_26[0][0]             \n",
            "                                                                 dropout_27[0][0]                 \n",
            "__________________________________________________________________________________________________\n",
            "batch_normalization_29 (BatchNo (None, 32, 32, 348)  1392        concatenate_27[0][0]             \n",
            "__________________________________________________________________________________________________\n",
            "activation_29 (Activation)      (None, 32, 32, 348)  0           batch_normalization_29[0][0]     \n",
            "__________________________________________________________________________________________________\n",
            "conv2d_29 (Conv2D)              (None, 32, 32, 12)   37584       activation_29[0][0]              \n",
            "__________________________________________________________________________________________________\n",
            "dropout_28 (Dropout)            (None, 32, 32, 12)   0           conv2d_29[0][0]                  \n",
            "__________________________________________________________________________________________________\n",
            "concatenate_28 (Concatenate)    (None, 32, 32, 360)  0           concatenate_27[0][0]             \n",
            "                                                                 dropout_28[0][0]                 \n",
            "__________________________________________________________________________________________________\n",
            "batch_normalization_30 (BatchNo (None, 32, 32, 360)  1440        concatenate_28[0][0]             \n",
            "__________________________________________________________________________________________________\n",
            "activation_30 (Activation)      (None, 32, 32, 360)  0           batch_normalization_30[0][0]     \n",
            "__________________________________________________________________________________________________\n",
            "conv2d_30 (Conv2D)              (None, 32, 32, 12)   38880       activation_30[0][0]              \n",
            "__________________________________________________________________________________________________\n",
            "dropout_29 (Dropout)            (None, 32, 32, 12)   0           conv2d_30[0][0]                  \n",
            "__________________________________________________________________________________________________\n",
            "concatenate_29 (Concatenate)    (None, 32, 32, 372)  0           concatenate_28[0][0]             \n",
            "                                                                 dropout_29[0][0]                 \n",
            "__________________________________________________________________________________________________\n",
            "batch_normalization_31 (BatchNo (None, 32, 32, 372)  1488        concatenate_29[0][0]             \n",
            "__________________________________________________________________________________________________\n",
            "activation_31 (Activation)      (None, 32, 32, 372)  0           batch_normalization_31[0][0]     \n",
            "__________________________________________________________________________________________________\n",
            "conv2d_31 (Conv2D)              (None, 32, 32, 12)   40176       activation_31[0][0]              \n",
            "__________________________________________________________________________________________________\n",
            "dropout_30 (Dropout)            (None, 32, 32, 12)   0           conv2d_31[0][0]                  \n",
            "__________________________________________________________________________________________________\n",
            "concatenate_30 (Concatenate)    (None, 32, 32, 384)  0           concatenate_29[0][0]             \n",
            "                                                                 dropout_30[0][0]                 \n",
            "__________________________________________________________________________________________________\n",
            "batch_normalization_32 (BatchNo (None, 32, 32, 384)  1536        concatenate_30[0][0]             \n",
            "__________________________________________________________________________________________________\n",
            "activation_32 (Activation)      (None, 32, 32, 384)  0           batch_normalization_32[0][0]     \n",
            "__________________________________________________________________________________________________\n",
            "conv2d_32 (Conv2D)              (None, 32, 32, 12)   41472       activation_32[0][0]              \n",
            "__________________________________________________________________________________________________\n",
            "dropout_31 (Dropout)            (None, 32, 32, 12)   0           conv2d_32[0][0]                  \n",
            "__________________________________________________________________________________________________\n",
            "concatenate_31 (Concatenate)    (None, 32, 32, 396)  0           concatenate_30[0][0]             \n",
            "                                                                 dropout_31[0][0]                 \n",
            "__________________________________________________________________________________________________\n",
            "batch_normalization_33 (BatchNo (None, 32, 32, 396)  1584        concatenate_31[0][0]             \n",
            "__________________________________________________________________________________________________\n",
            "activation_33 (Activation)      (None, 32, 32, 396)  0           batch_normalization_33[0][0]     \n",
            "__________________________________________________________________________________________________\n",
            "conv2d_33 (Conv2D)              (None, 32, 32, 12)   42768       activation_33[0][0]              \n",
            "__________________________________________________________________________________________________\n",
            "dropout_32 (Dropout)            (None, 32, 32, 12)   0           conv2d_33[0][0]                  \n",
            "__________________________________________________________________________________________________\n",
            "concatenate_32 (Concatenate)    (None, 32, 32, 408)  0           concatenate_31[0][0]             \n",
            "                                                                 dropout_32[0][0]                 \n",
            "__________________________________________________________________________________________________\n",
            "batch_normalization_34 (BatchNo (None, 32, 32, 408)  1632        concatenate_32[0][0]             \n",
            "__________________________________________________________________________________________________\n",
            "activation_34 (Activation)      (None, 32, 32, 408)  0           batch_normalization_34[0][0]     \n",
            "__________________________________________________________________________________________________\n",
            "conv2d_34 (Conv2D)              (None, 32, 32, 12)   44064       activation_34[0][0]              \n",
            "__________________________________________________________________________________________________\n",
            "dropout_33 (Dropout)            (None, 32, 32, 12)   0           conv2d_34[0][0]                  \n",
            "__________________________________________________________________________________________________\n",
            "concatenate_33 (Concatenate)    (None, 32, 32, 420)  0           concatenate_32[0][0]             \n",
            "                                                                 dropout_33[0][0]                 \n",
            "__________________________________________________________________________________________________\n",
            "batch_normalization_35 (BatchNo (None, 32, 32, 420)  1680        concatenate_33[0][0]             \n",
            "__________________________________________________________________________________________________\n",
            "activation_35 (Activation)      (None, 32, 32, 420)  0           batch_normalization_35[0][0]     \n",
            "__________________________________________________________________________________________________\n",
            "conv2d_35 (Conv2D)              (None, 32, 32, 12)   45360       activation_35[0][0]              \n",
            "__________________________________________________________________________________________________\n",
            "dropout_34 (Dropout)            (None, 32, 32, 12)   0           conv2d_35[0][0]                  \n",
            "__________________________________________________________________________________________________\n",
            "concatenate_34 (Concatenate)    (None, 32, 32, 432)  0           concatenate_33[0][0]             \n",
            "                                                                 dropout_34[0][0]                 \n",
            "__________________________________________________________________________________________________\n",
            "batch_normalization_36 (BatchNo (None, 32, 32, 432)  1728        concatenate_34[0][0]             \n",
            "__________________________________________________________________________________________________\n",
            "activation_36 (Activation)      (None, 32, 32, 432)  0           batch_normalization_36[0][0]     \n",
            "__________________________________________________________________________________________________\n",
            "conv2d_36 (Conv2D)              (None, 32, 32, 12)   46656       activation_36[0][0]              \n",
            "__________________________________________________________________________________________________\n",
            "dropout_35 (Dropout)            (None, 32, 32, 12)   0           conv2d_36[0][0]                  \n",
            "__________________________________________________________________________________________________\n",
            "concatenate_35 (Concatenate)    (None, 32, 32, 444)  0           concatenate_34[0][0]             \n",
            "                                                                 dropout_35[0][0]                 \n",
            "__________________________________________________________________________________________________\n",
            "batch_normalization_37 (BatchNo (None, 32, 32, 444)  1776        concatenate_35[0][0]             \n",
            "__________________________________________________________________________________________________\n",
            "activation_37 (Activation)      (None, 32, 32, 444)  0           batch_normalization_37[0][0]     \n",
            "__________________________________________________________________________________________________\n",
            "conv2d_37 (Conv2D)              (None, 32, 32, 12)   47952       activation_37[0][0]              \n",
            "__________________________________________________________________________________________________\n",
            "dropout_36 (Dropout)            (None, 32, 32, 12)   0           conv2d_37[0][0]                  \n",
            "__________________________________________________________________________________________________\n",
            "concatenate_36 (Concatenate)    (None, 32, 32, 456)  0           concatenate_35[0][0]             \n",
            "                                                                 dropout_36[0][0]                 \n",
            "__________________________________________________________________________________________________\n",
            "batch_normalization_38 (BatchNo (None, 32, 32, 456)  1824        concatenate_36[0][0]             \n",
            "__________________________________________________________________________________________________\n",
            "activation_38 (Activation)      (None, 32, 32, 456)  0           batch_normalization_38[0][0]     \n",
            "__________________________________________________________________________________________________\n",
            "conv2d_38 (Conv2D)              (None, 32, 32, 12)   49248       activation_38[0][0]              \n",
            "__________________________________________________________________________________________________\n",
            "dropout_37 (Dropout)            (None, 32, 32, 12)   0           conv2d_38[0][0]                  \n",
            "__________________________________________________________________________________________________\n",
            "concatenate_37 (Concatenate)    (None, 32, 32, 468)  0           concatenate_36[0][0]             \n",
            "                                                                 dropout_37[0][0]                 \n",
            "__________________________________________________________________________________________________\n",
            "batch_normalization_39 (BatchNo (None, 32, 32, 468)  1872        concatenate_37[0][0]             \n",
            "__________________________________________________________________________________________________\n",
            "activation_39 (Activation)      (None, 32, 32, 468)  0           batch_normalization_39[0][0]     \n",
            "__________________________________________________________________________________________________\n",
            "conv2d_39 (Conv2D)              (None, 32, 32, 12)   50544       activation_39[0][0]              \n",
            "__________________________________________________________________________________________________\n",
            "dropout_38 (Dropout)            (None, 32, 32, 12)   0           conv2d_39[0][0]                  \n",
            "__________________________________________________________________________________________________\n",
            "concatenate_38 (Concatenate)    (None, 32, 32, 480)  0           concatenate_37[0][0]             \n",
            "                                                                 dropout_38[0][0]                 \n",
            "__________________________________________________________________________________________________\n",
            "batch_normalization_40 (BatchNo (None, 32, 32, 480)  1920        concatenate_38[0][0]             \n",
            "__________________________________________________________________________________________________\n",
            "activation_40 (Activation)      (None, 32, 32, 480)  0           batch_normalization_40[0][0]     \n",
            "__________________________________________________________________________________________________\n",
            "conv2d_40 (Conv2D)              (None, 32, 32, 12)   51840       activation_40[0][0]              \n",
            "__________________________________________________________________________________________________\n",
            "dropout_39 (Dropout)            (None, 32, 32, 12)   0           conv2d_40[0][0]                  \n",
            "__________________________________________________________________________________________________\n",
            "concatenate_39 (Concatenate)    (None, 32, 32, 492)  0           concatenate_38[0][0]             \n",
            "                                                                 dropout_39[0][0]                 \n",
            "__________________________________________________________________________________________________\n",
            "batch_normalization_41 (BatchNo (None, 32, 32, 492)  1968        concatenate_39[0][0]             \n",
            "__________________________________________________________________________________________________\n",
            "activation_41 (Activation)      (None, 32, 32, 492)  0           batch_normalization_41[0][0]     \n",
            "__________________________________________________________________________________________________\n",
            "conv2d_41 (Conv2D)              (None, 32, 32, 12)   53136       activation_41[0][0]              \n",
            "__________________________________________________________________________________________________\n",
            "dropout_40 (Dropout)            (None, 32, 32, 12)   0           conv2d_41[0][0]                  \n",
            "__________________________________________________________________________________________________\n",
            "concatenate_40 (Concatenate)    (None, 32, 32, 504)  0           concatenate_39[0][0]             \n",
            "                                                                 dropout_40[0][0]                 \n",
            "__________________________________________________________________________________________________\n",
            "batch_normalization_42 (BatchNo (None, 32, 32, 504)  2016        concatenate_40[0][0]             \n",
            "__________________________________________________________________________________________________\n",
            "activation_42 (Activation)      (None, 32, 32, 504)  0           batch_normalization_42[0][0]     \n",
            "__________________________________________________________________________________________________\n",
            "conv2d_42 (Conv2D)              (None, 32, 32, 12)   6048        activation_42[0][0]              \n",
            "__________________________________________________________________________________________________\n",
            "dropout_41 (Dropout)            (None, 32, 32, 12)   0           conv2d_42[0][0]                  \n",
            "__________________________________________________________________________________________________\n",
            "average_pooling2d_1 (AveragePoo (None, 16, 16, 12)   0           dropout_41[0][0]                 \n",
            "__________________________________________________________________________________________________\n",
            "batch_normalization_43 (BatchNo (None, 16, 16, 12)   48          average_pooling2d_1[0][0]        \n",
            "__________________________________________________________________________________________________\n",
            "activation_43 (Activation)      (None, 16, 16, 12)   0           batch_normalization_43[0][0]     \n",
            "__________________________________________________________________________________________________\n",
            "conv2d_43 (Conv2D)              (None, 16, 16, 12)   1296        activation_43[0][0]              \n",
            "__________________________________________________________________________________________________\n",
            "dropout_42 (Dropout)            (None, 16, 16, 12)   0           conv2d_43[0][0]                  \n",
            "__________________________________________________________________________________________________\n",
            "concatenate_41 (Concatenate)    (None, 16, 16, 24)   0           average_pooling2d_1[0][0]        \n",
            "                                                                 dropout_42[0][0]                 \n",
            "__________________________________________________________________________________________________\n",
            "batch_normalization_44 (BatchNo (None, 16, 16, 24)   96          concatenate_41[0][0]             \n",
            "__________________________________________________________________________________________________\n",
            "activation_44 (Activation)      (None, 16, 16, 24)   0           batch_normalization_44[0][0]     \n",
            "__________________________________________________________________________________________________\n",
            "conv2d_44 (Conv2D)              (None, 16, 16, 12)   2592        activation_44[0][0]              \n",
            "__________________________________________________________________________________________________\n",
            "dropout_43 (Dropout)            (None, 16, 16, 12)   0           conv2d_44[0][0]                  \n",
            "__________________________________________________________________________________________________\n",
            "concatenate_42 (Concatenate)    (None, 16, 16, 36)   0           concatenate_41[0][0]             \n",
            "                                                                 dropout_43[0][0]                 \n",
            "__________________________________________________________________________________________________\n",
            "batch_normalization_45 (BatchNo (None, 16, 16, 36)   144         concatenate_42[0][0]             \n",
            "__________________________________________________________________________________________________\n",
            "activation_45 (Activation)      (None, 16, 16, 36)   0           batch_normalization_45[0][0]     \n",
            "__________________________________________________________________________________________________\n",
            "conv2d_45 (Conv2D)              (None, 16, 16, 12)   3888        activation_45[0][0]              \n",
            "__________________________________________________________________________________________________\n",
            "dropout_44 (Dropout)            (None, 16, 16, 12)   0           conv2d_45[0][0]                  \n",
            "__________________________________________________________________________________________________\n",
            "concatenate_43 (Concatenate)    (None, 16, 16, 48)   0           concatenate_42[0][0]             \n",
            "                                                                 dropout_44[0][0]                 \n",
            "__________________________________________________________________________________________________\n",
            "batch_normalization_46 (BatchNo (None, 16, 16, 48)   192         concatenate_43[0][0]             \n",
            "__________________________________________________________________________________________________\n",
            "activation_46 (Activation)      (None, 16, 16, 48)   0           batch_normalization_46[0][0]     \n",
            "__________________________________________________________________________________________________\n",
            "conv2d_46 (Conv2D)              (None, 16, 16, 12)   5184        activation_46[0][0]              \n",
            "__________________________________________________________________________________________________\n",
            "dropout_45 (Dropout)            (None, 16, 16, 12)   0           conv2d_46[0][0]                  \n",
            "__________________________________________________________________________________________________\n",
            "concatenate_44 (Concatenate)    (None, 16, 16, 60)   0           concatenate_43[0][0]             \n",
            "                                                                 dropout_45[0][0]                 \n",
            "__________________________________________________________________________________________________\n",
            "batch_normalization_47 (BatchNo (None, 16, 16, 60)   240         concatenate_44[0][0]             \n",
            "__________________________________________________________________________________________________\n",
            "activation_47 (Activation)      (None, 16, 16, 60)   0           batch_normalization_47[0][0]     \n",
            "__________________________________________________________________________________________________\n",
            "conv2d_47 (Conv2D)              (None, 16, 16, 12)   6480        activation_47[0][0]              \n",
            "__________________________________________________________________________________________________\n",
            "dropout_46 (Dropout)            (None, 16, 16, 12)   0           conv2d_47[0][0]                  \n",
            "__________________________________________________________________________________________________\n",
            "concatenate_45 (Concatenate)    (None, 16, 16, 72)   0           concatenate_44[0][0]             \n",
            "                                                                 dropout_46[0][0]                 \n",
            "__________________________________________________________________________________________________\n",
            "batch_normalization_48 (BatchNo (None, 16, 16, 72)   288         concatenate_45[0][0]             \n",
            "__________________________________________________________________________________________________\n",
            "activation_48 (Activation)      (None, 16, 16, 72)   0           batch_normalization_48[0][0]     \n",
            "__________________________________________________________________________________________________\n",
            "conv2d_48 (Conv2D)              (None, 16, 16, 12)   7776        activation_48[0][0]              \n",
            "__________________________________________________________________________________________________\n",
            "dropout_47 (Dropout)            (None, 16, 16, 12)   0           conv2d_48[0][0]                  \n",
            "__________________________________________________________________________________________________\n",
            "concatenate_46 (Concatenate)    (None, 16, 16, 84)   0           concatenate_45[0][0]             \n",
            "                                                                 dropout_47[0][0]                 \n",
            "__________________________________________________________________________________________________\n",
            "batch_normalization_49 (BatchNo (None, 16, 16, 84)   336         concatenate_46[0][0]             \n",
            "__________________________________________________________________________________________________\n",
            "activation_49 (Activation)      (None, 16, 16, 84)   0           batch_normalization_49[0][0]     \n",
            "__________________________________________________________________________________________________\n",
            "conv2d_49 (Conv2D)              (None, 16, 16, 12)   9072        activation_49[0][0]              \n",
            "__________________________________________________________________________________________________\n",
            "dropout_48 (Dropout)            (None, 16, 16, 12)   0           conv2d_49[0][0]                  \n",
            "__________________________________________________________________________________________________\n",
            "concatenate_47 (Concatenate)    (None, 16, 16, 96)   0           concatenate_46[0][0]             \n",
            "                                                                 dropout_48[0][0]                 \n",
            "__________________________________________________________________________________________________\n",
            "batch_normalization_50 (BatchNo (None, 16, 16, 96)   384         concatenate_47[0][0]             \n",
            "__________________________________________________________________________________________________\n",
            "activation_50 (Activation)      (None, 16, 16, 96)   0           batch_normalization_50[0][0]     \n",
            "__________________________________________________________________________________________________\n",
            "conv2d_50 (Conv2D)              (None, 16, 16, 12)   10368       activation_50[0][0]              \n",
            "__________________________________________________________________________________________________\n",
            "dropout_49 (Dropout)            (None, 16, 16, 12)   0           conv2d_50[0][0]                  \n",
            "__________________________________________________________________________________________________\n",
            "concatenate_48 (Concatenate)    (None, 16, 16, 108)  0           concatenate_47[0][0]             \n",
            "                                                                 dropout_49[0][0]                 \n",
            "__________________________________________________________________________________________________\n",
            "batch_normalization_51 (BatchNo (None, 16, 16, 108)  432         concatenate_48[0][0]             \n",
            "__________________________________________________________________________________________________\n",
            "activation_51 (Activation)      (None, 16, 16, 108)  0           batch_normalization_51[0][0]     \n",
            "__________________________________________________________________________________________________\n",
            "conv2d_51 (Conv2D)              (None, 16, 16, 12)   11664       activation_51[0][0]              \n",
            "__________________________________________________________________________________________________\n",
            "dropout_50 (Dropout)            (None, 16, 16, 12)   0           conv2d_51[0][0]                  \n",
            "__________________________________________________________________________________________________\n",
            "concatenate_49 (Concatenate)    (None, 16, 16, 120)  0           concatenate_48[0][0]             \n",
            "                                                                 dropout_50[0][0]                 \n",
            "__________________________________________________________________________________________________\n",
            "batch_normalization_52 (BatchNo (None, 16, 16, 120)  480         concatenate_49[0][0]             \n",
            "__________________________________________________________________________________________________\n",
            "activation_52 (Activation)      (None, 16, 16, 120)  0           batch_normalization_52[0][0]     \n",
            "__________________________________________________________________________________________________\n",
            "conv2d_52 (Conv2D)              (None, 16, 16, 12)   12960       activation_52[0][0]              \n",
            "__________________________________________________________________________________________________\n",
            "dropout_51 (Dropout)            (None, 16, 16, 12)   0           conv2d_52[0][0]                  \n",
            "__________________________________________________________________________________________________\n",
            "concatenate_50 (Concatenate)    (None, 16, 16, 132)  0           concatenate_49[0][0]             \n",
            "                                                                 dropout_51[0][0]                 \n",
            "__________________________________________________________________________________________________\n",
            "batch_normalization_53 (BatchNo (None, 16, 16, 132)  528         concatenate_50[0][0]             \n",
            "__________________________________________________________________________________________________\n",
            "activation_53 (Activation)      (None, 16, 16, 132)  0           batch_normalization_53[0][0]     \n",
            "__________________________________________________________________________________________________\n",
            "conv2d_53 (Conv2D)              (None, 16, 16, 12)   14256       activation_53[0][0]              \n",
            "__________________________________________________________________________________________________\n",
            "dropout_52 (Dropout)            (None, 16, 16, 12)   0           conv2d_53[0][0]                  \n",
            "__________________________________________________________________________________________________\n",
            "concatenate_51 (Concatenate)    (None, 16, 16, 144)  0           concatenate_50[0][0]             \n",
            "                                                                 dropout_52[0][0]                 \n",
            "__________________________________________________________________________________________________\n",
            "batch_normalization_54 (BatchNo (None, 16, 16, 144)  576         concatenate_51[0][0]             \n",
            "__________________________________________________________________________________________________\n",
            "activation_54 (Activation)      (None, 16, 16, 144)  0           batch_normalization_54[0][0]     \n",
            "__________________________________________________________________________________________________\n",
            "conv2d_54 (Conv2D)              (None, 16, 16, 12)   15552       activation_54[0][0]              \n",
            "__________________________________________________________________________________________________\n",
            "dropout_53 (Dropout)            (None, 16, 16, 12)   0           conv2d_54[0][0]                  \n",
            "__________________________________________________________________________________________________\n",
            "concatenate_52 (Concatenate)    (None, 16, 16, 156)  0           concatenate_51[0][0]             \n",
            "                                                                 dropout_53[0][0]                 \n",
            "__________________________________________________________________________________________________\n",
            "batch_normalization_55 (BatchNo (None, 16, 16, 156)  624         concatenate_52[0][0]             \n",
            "__________________________________________________________________________________________________\n",
            "activation_55 (Activation)      (None, 16, 16, 156)  0           batch_normalization_55[0][0]     \n",
            "__________________________________________________________________________________________________\n",
            "conv2d_55 (Conv2D)              (None, 16, 16, 12)   16848       activation_55[0][0]              \n",
            "__________________________________________________________________________________________________\n",
            "dropout_54 (Dropout)            (None, 16, 16, 12)   0           conv2d_55[0][0]                  \n",
            "__________________________________________________________________________________________________\n",
            "concatenate_53 (Concatenate)    (None, 16, 16, 168)  0           concatenate_52[0][0]             \n",
            "                                                                 dropout_54[0][0]                 \n",
            "__________________________________________________________________________________________________\n",
            "batch_normalization_56 (BatchNo (None, 16, 16, 168)  672         concatenate_53[0][0]             \n",
            "__________________________________________________________________________________________________\n",
            "activation_56 (Activation)      (None, 16, 16, 168)  0           batch_normalization_56[0][0]     \n",
            "__________________________________________________________________________________________________\n",
            "conv2d_56 (Conv2D)              (None, 16, 16, 12)   18144       activation_56[0][0]              \n",
            "__________________________________________________________________________________________________\n",
            "dropout_55 (Dropout)            (None, 16, 16, 12)   0           conv2d_56[0][0]                  \n",
            "__________________________________________________________________________________________________\n",
            "concatenate_54 (Concatenate)    (None, 16, 16, 180)  0           concatenate_53[0][0]             \n",
            "                                                                 dropout_55[0][0]                 \n",
            "__________________________________________________________________________________________________\n",
            "batch_normalization_57 (BatchNo (None, 16, 16, 180)  720         concatenate_54[0][0]             \n",
            "__________________________________________________________________________________________________\n",
            "activation_57 (Activation)      (None, 16, 16, 180)  0           batch_normalization_57[0][0]     \n",
            "__________________________________________________________________________________________________\n",
            "conv2d_57 (Conv2D)              (None, 16, 16, 12)   19440       activation_57[0][0]              \n",
            "__________________________________________________________________________________________________\n",
            "dropout_56 (Dropout)            (None, 16, 16, 12)   0           conv2d_57[0][0]                  \n",
            "__________________________________________________________________________________________________\n",
            "concatenate_55 (Concatenate)    (None, 16, 16, 192)  0           concatenate_54[0][0]             \n",
            "                                                                 dropout_56[0][0]                 \n",
            "__________________________________________________________________________________________________\n",
            "batch_normalization_58 (BatchNo (None, 16, 16, 192)  768         concatenate_55[0][0]             \n",
            "__________________________________________________________________________________________________\n",
            "activation_58 (Activation)      (None, 16, 16, 192)  0           batch_normalization_58[0][0]     \n",
            "__________________________________________________________________________________________________\n",
            "conv2d_58 (Conv2D)              (None, 16, 16, 12)   20736       activation_58[0][0]              \n",
            "__________________________________________________________________________________________________\n",
            "dropout_57 (Dropout)            (None, 16, 16, 12)   0           conv2d_58[0][0]                  \n",
            "__________________________________________________________________________________________________\n",
            "concatenate_56 (Concatenate)    (None, 16, 16, 204)  0           concatenate_55[0][0]             \n",
            "                                                                 dropout_57[0][0]                 \n",
            "__________________________________________________________________________________________________\n",
            "batch_normalization_59 (BatchNo (None, 16, 16, 204)  816         concatenate_56[0][0]             \n",
            "__________________________________________________________________________________________________\n",
            "activation_59 (Activation)      (None, 16, 16, 204)  0           batch_normalization_59[0][0]     \n",
            "__________________________________________________________________________________________________\n",
            "conv2d_59 (Conv2D)              (None, 16, 16, 12)   22032       activation_59[0][0]              \n",
            "__________________________________________________________________________________________________\n",
            "dropout_58 (Dropout)            (None, 16, 16, 12)   0           conv2d_59[0][0]                  \n",
            "__________________________________________________________________________________________________\n",
            "concatenate_57 (Concatenate)    (None, 16, 16, 216)  0           concatenate_56[0][0]             \n",
            "                                                                 dropout_58[0][0]                 \n",
            "__________________________________________________________________________________________________\n",
            "batch_normalization_60 (BatchNo (None, 16, 16, 216)  864         concatenate_57[0][0]             \n",
            "__________________________________________________________________________________________________\n",
            "activation_60 (Activation)      (None, 16, 16, 216)  0           batch_normalization_60[0][0]     \n",
            "__________________________________________________________________________________________________\n",
            "conv2d_60 (Conv2D)              (None, 16, 16, 12)   23328       activation_60[0][0]              \n",
            "__________________________________________________________________________________________________\n",
            "dropout_59 (Dropout)            (None, 16, 16, 12)   0           conv2d_60[0][0]                  \n",
            "__________________________________________________________________________________________________\n",
            "concatenate_58 (Concatenate)    (None, 16, 16, 228)  0           concatenate_57[0][0]             \n",
            "                                                                 dropout_59[0][0]                 \n",
            "__________________________________________________________________________________________________\n",
            "batch_normalization_61 (BatchNo (None, 16, 16, 228)  912         concatenate_58[0][0]             \n",
            "__________________________________________________________________________________________________\n",
            "activation_61 (Activation)      (None, 16, 16, 228)  0           batch_normalization_61[0][0]     \n",
            "__________________________________________________________________________________________________\n",
            "conv2d_61 (Conv2D)              (None, 16, 16, 12)   24624       activation_61[0][0]              \n",
            "__________________________________________________________________________________________________\n",
            "dropout_60 (Dropout)            (None, 16, 16, 12)   0           conv2d_61[0][0]                  \n",
            "__________________________________________________________________________________________________\n",
            "concatenate_59 (Concatenate)    (None, 16, 16, 240)  0           concatenate_58[0][0]             \n",
            "                                                                 dropout_60[0][0]                 \n",
            "__________________________________________________________________________________________________\n",
            "batch_normalization_62 (BatchNo (None, 16, 16, 240)  960         concatenate_59[0][0]             \n",
            "__________________________________________________________________________________________________\n",
            "activation_62 (Activation)      (None, 16, 16, 240)  0           batch_normalization_62[0][0]     \n",
            "__________________________________________________________________________________________________\n",
            "conv2d_62 (Conv2D)              (None, 16, 16, 12)   25920       activation_62[0][0]              \n",
            "__________________________________________________________________________________________________\n",
            "dropout_61 (Dropout)            (None, 16, 16, 12)   0           conv2d_62[0][0]                  \n",
            "__________________________________________________________________________________________________\n",
            "concatenate_60 (Concatenate)    (None, 16, 16, 252)  0           concatenate_59[0][0]             \n",
            "                                                                 dropout_61[0][0]                 \n",
            "__________________________________________________________________________________________________\n",
            "batch_normalization_63 (BatchNo (None, 16, 16, 252)  1008        concatenate_60[0][0]             \n",
            "__________________________________________________________________________________________________\n",
            "activation_63 (Activation)      (None, 16, 16, 252)  0           batch_normalization_63[0][0]     \n",
            "__________________________________________________________________________________________________\n",
            "conv2d_63 (Conv2D)              (None, 16, 16, 12)   27216       activation_63[0][0]              \n",
            "__________________________________________________________________________________________________\n",
            "dropout_62 (Dropout)            (None, 16, 16, 12)   0           conv2d_63[0][0]                  \n",
            "__________________________________________________________________________________________________\n",
            "concatenate_61 (Concatenate)    (None, 16, 16, 264)  0           concatenate_60[0][0]             \n",
            "                                                                 dropout_62[0][0]                 \n",
            "__________________________________________________________________________________________________\n",
            "batch_normalization_64 (BatchNo (None, 16, 16, 264)  1056        concatenate_61[0][0]             \n",
            "__________________________________________________________________________________________________\n",
            "activation_64 (Activation)      (None, 16, 16, 264)  0           batch_normalization_64[0][0]     \n",
            "__________________________________________________________________________________________________\n",
            "conv2d_64 (Conv2D)              (None, 16, 16, 12)   28512       activation_64[0][0]              \n",
            "__________________________________________________________________________________________________\n",
            "dropout_63 (Dropout)            (None, 16, 16, 12)   0           conv2d_64[0][0]                  \n",
            "__________________________________________________________________________________________________\n",
            "concatenate_62 (Concatenate)    (None, 16, 16, 276)  0           concatenate_61[0][0]             \n",
            "                                                                 dropout_63[0][0]                 \n",
            "__________________________________________________________________________________________________\n",
            "batch_normalization_65 (BatchNo (None, 16, 16, 276)  1104        concatenate_62[0][0]             \n",
            "__________________________________________________________________________________________________\n",
            "activation_65 (Activation)      (None, 16, 16, 276)  0           batch_normalization_65[0][0]     \n",
            "__________________________________________________________________________________________________\n",
            "conv2d_65 (Conv2D)              (None, 16, 16, 12)   29808       activation_65[0][0]              \n",
            "__________________________________________________________________________________________________\n",
            "dropout_64 (Dropout)            (None, 16, 16, 12)   0           conv2d_65[0][0]                  \n",
            "__________________________________________________________________________________________________\n",
            "concatenate_63 (Concatenate)    (None, 16, 16, 288)  0           concatenate_62[0][0]             \n",
            "                                                                 dropout_64[0][0]                 \n",
            "__________________________________________________________________________________________________\n",
            "batch_normalization_66 (BatchNo (None, 16, 16, 288)  1152        concatenate_63[0][0]             \n",
            "__________________________________________________________________________________________________\n",
            "activation_66 (Activation)      (None, 16, 16, 288)  0           batch_normalization_66[0][0]     \n",
            "__________________________________________________________________________________________________\n",
            "conv2d_66 (Conv2D)              (None, 16, 16, 12)   31104       activation_66[0][0]              \n",
            "__________________________________________________________________________________________________\n",
            "dropout_65 (Dropout)            (None, 16, 16, 12)   0           conv2d_66[0][0]                  \n",
            "__________________________________________________________________________________________________\n",
            "concatenate_64 (Concatenate)    (None, 16, 16, 300)  0           concatenate_63[0][0]             \n",
            "                                                                 dropout_65[0][0]                 \n",
            "__________________________________________________________________________________________________\n",
            "batch_normalization_67 (BatchNo (None, 16, 16, 300)  1200        concatenate_64[0][0]             \n",
            "__________________________________________________________________________________________________\n",
            "activation_67 (Activation)      (None, 16, 16, 300)  0           batch_normalization_67[0][0]     \n",
            "__________________________________________________________________________________________________\n",
            "conv2d_67 (Conv2D)              (None, 16, 16, 12)   32400       activation_67[0][0]              \n",
            "__________________________________________________________________________________________________\n",
            "dropout_66 (Dropout)            (None, 16, 16, 12)   0           conv2d_67[0][0]                  \n",
            "__________________________________________________________________________________________________\n",
            "concatenate_65 (Concatenate)    (None, 16, 16, 312)  0           concatenate_64[0][0]             \n",
            "                                                                 dropout_66[0][0]                 \n",
            "__________________________________________________________________________________________________\n",
            "batch_normalization_68 (BatchNo (None, 16, 16, 312)  1248        concatenate_65[0][0]             \n",
            "__________________________________________________________________________________________________\n",
            "activation_68 (Activation)      (None, 16, 16, 312)  0           batch_normalization_68[0][0]     \n",
            "__________________________________________________________________________________________________\n",
            "conv2d_68 (Conv2D)              (None, 16, 16, 12)   33696       activation_68[0][0]              \n",
            "__________________________________________________________________________________________________\n",
            "dropout_67 (Dropout)            (None, 16, 16, 12)   0           conv2d_68[0][0]                  \n",
            "__________________________________________________________________________________________________\n",
            "concatenate_66 (Concatenate)    (None, 16, 16, 324)  0           concatenate_65[0][0]             \n",
            "                                                                 dropout_67[0][0]                 \n",
            "__________________________________________________________________________________________________\n",
            "batch_normalization_69 (BatchNo (None, 16, 16, 324)  1296        concatenate_66[0][0]             \n",
            "__________________________________________________________________________________________________\n",
            "activation_69 (Activation)      (None, 16, 16, 324)  0           batch_normalization_69[0][0]     \n",
            "__________________________________________________________________________________________________\n",
            "conv2d_69 (Conv2D)              (None, 16, 16, 12)   34992       activation_69[0][0]              \n",
            "__________________________________________________________________________________________________\n",
            "dropout_68 (Dropout)            (None, 16, 16, 12)   0           conv2d_69[0][0]                  \n",
            "__________________________________________________________________________________________________\n",
            "concatenate_67 (Concatenate)    (None, 16, 16, 336)  0           concatenate_66[0][0]             \n",
            "                                                                 dropout_68[0][0]                 \n",
            "__________________________________________________________________________________________________\n",
            "batch_normalization_70 (BatchNo (None, 16, 16, 336)  1344        concatenate_67[0][0]             \n",
            "__________________________________________________________________________________________________\n",
            "activation_70 (Activation)      (None, 16, 16, 336)  0           batch_normalization_70[0][0]     \n",
            "__________________________________________________________________________________________________\n",
            "conv2d_70 (Conv2D)              (None, 16, 16, 12)   36288       activation_70[0][0]              \n",
            "__________________________________________________________________________________________________\n",
            "dropout_69 (Dropout)            (None, 16, 16, 12)   0           conv2d_70[0][0]                  \n",
            "__________________________________________________________________________________________________\n",
            "concatenate_68 (Concatenate)    (None, 16, 16, 348)  0           concatenate_67[0][0]             \n",
            "                                                                 dropout_69[0][0]                 \n",
            "__________________________________________________________________________________________________\n",
            "batch_normalization_71 (BatchNo (None, 16, 16, 348)  1392        concatenate_68[0][0]             \n",
            "__________________________________________________________________________________________________\n",
            "activation_71 (Activation)      (None, 16, 16, 348)  0           batch_normalization_71[0][0]     \n",
            "__________________________________________________________________________________________________\n",
            "conv2d_71 (Conv2D)              (None, 16, 16, 12)   37584       activation_71[0][0]              \n",
            "__________________________________________________________________________________________________\n",
            "dropout_70 (Dropout)            (None, 16, 16, 12)   0           conv2d_71[0][0]                  \n",
            "__________________________________________________________________________________________________\n",
            "concatenate_69 (Concatenate)    (None, 16, 16, 360)  0           concatenate_68[0][0]             \n",
            "                                                                 dropout_70[0][0]                 \n",
            "__________________________________________________________________________________________________\n",
            "batch_normalization_72 (BatchNo (None, 16, 16, 360)  1440        concatenate_69[0][0]             \n",
            "__________________________________________________________________________________________________\n",
            "activation_72 (Activation)      (None, 16, 16, 360)  0           batch_normalization_72[0][0]     \n",
            "__________________________________________________________________________________________________\n",
            "conv2d_72 (Conv2D)              (None, 16, 16, 12)   38880       activation_72[0][0]              \n",
            "__________________________________________________________________________________________________\n",
            "dropout_71 (Dropout)            (None, 16, 16, 12)   0           conv2d_72[0][0]                  \n",
            "__________________________________________________________________________________________________\n",
            "concatenate_70 (Concatenate)    (None, 16, 16, 372)  0           concatenate_69[0][0]             \n",
            "                                                                 dropout_71[0][0]                 \n",
            "__________________________________________________________________________________________________\n"
          ],
          "name": "stdout"
        },
        {
          "output_type": "stream",
          "text": [
            "batch_normalization_73 (BatchNo (None, 16, 16, 372)  1488        concatenate_70[0][0]             \n",
            "__________________________________________________________________________________________________\n",
            "activation_73 (Activation)      (None, 16, 16, 372)  0           batch_normalization_73[0][0]     \n",
            "__________________________________________________________________________________________________\n",
            "conv2d_73 (Conv2D)              (None, 16, 16, 12)   40176       activation_73[0][0]              \n",
            "__________________________________________________________________________________________________\n",
            "dropout_72 (Dropout)            (None, 16, 16, 12)   0           conv2d_73[0][0]                  \n",
            "__________________________________________________________________________________________________\n",
            "concatenate_71 (Concatenate)    (None, 16, 16, 384)  0           concatenate_70[0][0]             \n",
            "                                                                 dropout_72[0][0]                 \n",
            "__________________________________________________________________________________________________\n",
            "batch_normalization_74 (BatchNo (None, 16, 16, 384)  1536        concatenate_71[0][0]             \n",
            "__________________________________________________________________________________________________\n",
            "activation_74 (Activation)      (None, 16, 16, 384)  0           batch_normalization_74[0][0]     \n",
            "__________________________________________________________________________________________________\n",
            "conv2d_74 (Conv2D)              (None, 16, 16, 12)   41472       activation_74[0][0]              \n",
            "__________________________________________________________________________________________________\n",
            "dropout_73 (Dropout)            (None, 16, 16, 12)   0           conv2d_74[0][0]                  \n",
            "__________________________________________________________________________________________________\n",
            "concatenate_72 (Concatenate)    (None, 16, 16, 396)  0           concatenate_71[0][0]             \n",
            "                                                                 dropout_73[0][0]                 \n",
            "__________________________________________________________________________________________________\n",
            "batch_normalization_75 (BatchNo (None, 16, 16, 396)  1584        concatenate_72[0][0]             \n",
            "__________________________________________________________________________________________________\n",
            "activation_75 (Activation)      (None, 16, 16, 396)  0           batch_normalization_75[0][0]     \n",
            "__________________________________________________________________________________________________\n",
            "conv2d_75 (Conv2D)              (None, 16, 16, 12)   42768       activation_75[0][0]              \n",
            "__________________________________________________________________________________________________\n",
            "dropout_74 (Dropout)            (None, 16, 16, 12)   0           conv2d_75[0][0]                  \n",
            "__________________________________________________________________________________________________\n",
            "concatenate_73 (Concatenate)    (None, 16, 16, 408)  0           concatenate_72[0][0]             \n",
            "                                                                 dropout_74[0][0]                 \n",
            "__________________________________________________________________________________________________\n",
            "batch_normalization_76 (BatchNo (None, 16, 16, 408)  1632        concatenate_73[0][0]             \n",
            "__________________________________________________________________________________________________\n",
            "activation_76 (Activation)      (None, 16, 16, 408)  0           batch_normalization_76[0][0]     \n",
            "__________________________________________________________________________________________________\n",
            "conv2d_76 (Conv2D)              (None, 16, 16, 12)   44064       activation_76[0][0]              \n",
            "__________________________________________________________________________________________________\n",
            "dropout_75 (Dropout)            (None, 16, 16, 12)   0           conv2d_76[0][0]                  \n",
            "__________________________________________________________________________________________________\n",
            "concatenate_74 (Concatenate)    (None, 16, 16, 420)  0           concatenate_73[0][0]             \n",
            "                                                                 dropout_75[0][0]                 \n",
            "__________________________________________________________________________________________________\n",
            "batch_normalization_77 (BatchNo (None, 16, 16, 420)  1680        concatenate_74[0][0]             \n",
            "__________________________________________________________________________________________________\n",
            "activation_77 (Activation)      (None, 16, 16, 420)  0           batch_normalization_77[0][0]     \n",
            "__________________________________________________________________________________________________\n",
            "conv2d_77 (Conv2D)              (None, 16, 16, 12)   45360       activation_77[0][0]              \n",
            "__________________________________________________________________________________________________\n",
            "dropout_76 (Dropout)            (None, 16, 16, 12)   0           conv2d_77[0][0]                  \n",
            "__________________________________________________________________________________________________\n",
            "concatenate_75 (Concatenate)    (None, 16, 16, 432)  0           concatenate_74[0][0]             \n",
            "                                                                 dropout_76[0][0]                 \n",
            "__________________________________________________________________________________________________\n",
            "batch_normalization_78 (BatchNo (None, 16, 16, 432)  1728        concatenate_75[0][0]             \n",
            "__________________________________________________________________________________________________\n",
            "activation_78 (Activation)      (None, 16, 16, 432)  0           batch_normalization_78[0][0]     \n",
            "__________________________________________________________________________________________________\n",
            "conv2d_78 (Conv2D)              (None, 16, 16, 12)   46656       activation_78[0][0]              \n",
            "__________________________________________________________________________________________________\n",
            "dropout_77 (Dropout)            (None, 16, 16, 12)   0           conv2d_78[0][0]                  \n",
            "__________________________________________________________________________________________________\n",
            "concatenate_76 (Concatenate)    (None, 16, 16, 444)  0           concatenate_75[0][0]             \n",
            "                                                                 dropout_77[0][0]                 \n",
            "__________________________________________________________________________________________________\n",
            "batch_normalization_79 (BatchNo (None, 16, 16, 444)  1776        concatenate_76[0][0]             \n",
            "__________________________________________________________________________________________________\n",
            "activation_79 (Activation)      (None, 16, 16, 444)  0           batch_normalization_79[0][0]     \n",
            "__________________________________________________________________________________________________\n",
            "conv2d_79 (Conv2D)              (None, 16, 16, 12)   47952       activation_79[0][0]              \n",
            "__________________________________________________________________________________________________\n",
            "dropout_78 (Dropout)            (None, 16, 16, 12)   0           conv2d_79[0][0]                  \n",
            "__________________________________________________________________________________________________\n",
            "concatenate_77 (Concatenate)    (None, 16, 16, 456)  0           concatenate_76[0][0]             \n",
            "                                                                 dropout_78[0][0]                 \n",
            "__________________________________________________________________________________________________\n",
            "batch_normalization_80 (BatchNo (None, 16, 16, 456)  1824        concatenate_77[0][0]             \n",
            "__________________________________________________________________________________________________\n",
            "activation_80 (Activation)      (None, 16, 16, 456)  0           batch_normalization_80[0][0]     \n",
            "__________________________________________________________________________________________________\n",
            "conv2d_80 (Conv2D)              (None, 16, 16, 12)   49248       activation_80[0][0]              \n",
            "__________________________________________________________________________________________________\n",
            "dropout_79 (Dropout)            (None, 16, 16, 12)   0           conv2d_80[0][0]                  \n",
            "__________________________________________________________________________________________________\n",
            "concatenate_78 (Concatenate)    (None, 16, 16, 468)  0           concatenate_77[0][0]             \n",
            "                                                                 dropout_79[0][0]                 \n",
            "__________________________________________________________________________________________________\n",
            "batch_normalization_81 (BatchNo (None, 16, 16, 468)  1872        concatenate_78[0][0]             \n",
            "__________________________________________________________________________________________________\n",
            "activation_81 (Activation)      (None, 16, 16, 468)  0           batch_normalization_81[0][0]     \n",
            "__________________________________________________________________________________________________\n",
            "conv2d_81 (Conv2D)              (None, 16, 16, 12)   50544       activation_81[0][0]              \n",
            "__________________________________________________________________________________________________\n",
            "dropout_80 (Dropout)            (None, 16, 16, 12)   0           conv2d_81[0][0]                  \n",
            "__________________________________________________________________________________________________\n",
            "concatenate_79 (Concatenate)    (None, 16, 16, 480)  0           concatenate_78[0][0]             \n",
            "                                                                 dropout_80[0][0]                 \n",
            "__________________________________________________________________________________________________\n",
            "batch_normalization_82 (BatchNo (None, 16, 16, 480)  1920        concatenate_79[0][0]             \n",
            "__________________________________________________________________________________________________\n",
            "activation_82 (Activation)      (None, 16, 16, 480)  0           batch_normalization_82[0][0]     \n",
            "__________________________________________________________________________________________________\n",
            "conv2d_82 (Conv2D)              (None, 16, 16, 12)   51840       activation_82[0][0]              \n",
            "__________________________________________________________________________________________________\n",
            "dropout_81 (Dropout)            (None, 16, 16, 12)   0           conv2d_82[0][0]                  \n",
            "__________________________________________________________________________________________________\n",
            "concatenate_80 (Concatenate)    (None, 16, 16, 492)  0           concatenate_79[0][0]             \n",
            "                                                                 dropout_81[0][0]                 \n",
            "__________________________________________________________________________________________________\n",
            "batch_normalization_83 (BatchNo (None, 16, 16, 492)  1968        concatenate_80[0][0]             \n",
            "__________________________________________________________________________________________________\n",
            "activation_83 (Activation)      (None, 16, 16, 492)  0           batch_normalization_83[0][0]     \n",
            "__________________________________________________________________________________________________\n",
            "conv2d_83 (Conv2D)              (None, 16, 16, 12)   5904        activation_83[0][0]              \n",
            "__________________________________________________________________________________________________\n",
            "dropout_82 (Dropout)            (None, 16, 16, 12)   0           conv2d_83[0][0]                  \n",
            "__________________________________________________________________________________________________\n",
            "average_pooling2d_2 (AveragePoo (None, 8, 8, 12)     0           dropout_82[0][0]                 \n",
            "__________________________________________________________________________________________________\n",
            "batch_normalization_84 (BatchNo (None, 8, 8, 12)     48          average_pooling2d_2[0][0]        \n",
            "__________________________________________________________________________________________________\n",
            "activation_84 (Activation)      (None, 8, 8, 12)     0           batch_normalization_84[0][0]     \n",
            "__________________________________________________________________________________________________\n",
            "conv2d_84 (Conv2D)              (None, 8, 8, 12)     1296        activation_84[0][0]              \n",
            "__________________________________________________________________________________________________\n",
            "dropout_83 (Dropout)            (None, 8, 8, 12)     0           conv2d_84[0][0]                  \n",
            "__________________________________________________________________________________________________\n",
            "concatenate_81 (Concatenate)    (None, 8, 8, 24)     0           average_pooling2d_2[0][0]        \n",
            "                                                                 dropout_83[0][0]                 \n",
            "__________________________________________________________________________________________________\n",
            "batch_normalization_85 (BatchNo (None, 8, 8, 24)     96          concatenate_81[0][0]             \n",
            "__________________________________________________________________________________________________\n",
            "activation_85 (Activation)      (None, 8, 8, 24)     0           batch_normalization_85[0][0]     \n",
            "__________________________________________________________________________________________________\n",
            "conv2d_85 (Conv2D)              (None, 8, 8, 12)     2592        activation_85[0][0]              \n",
            "__________________________________________________________________________________________________\n",
            "dropout_84 (Dropout)            (None, 8, 8, 12)     0           conv2d_85[0][0]                  \n",
            "__________________________________________________________________________________________________\n",
            "concatenate_82 (Concatenate)    (None, 8, 8, 36)     0           concatenate_81[0][0]             \n",
            "                                                                 dropout_84[0][0]                 \n",
            "__________________________________________________________________________________________________\n",
            "batch_normalization_86 (BatchNo (None, 8, 8, 36)     144         concatenate_82[0][0]             \n",
            "__________________________________________________________________________________________________\n",
            "activation_86 (Activation)      (None, 8, 8, 36)     0           batch_normalization_86[0][0]     \n",
            "__________________________________________________________________________________________________\n",
            "conv2d_86 (Conv2D)              (None, 8, 8, 12)     3888        activation_86[0][0]              \n",
            "__________________________________________________________________________________________________\n",
            "dropout_85 (Dropout)            (None, 8, 8, 12)     0           conv2d_86[0][0]                  \n",
            "__________________________________________________________________________________________________\n",
            "concatenate_83 (Concatenate)    (None, 8, 8, 48)     0           concatenate_82[0][0]             \n",
            "                                                                 dropout_85[0][0]                 \n",
            "__________________________________________________________________________________________________\n",
            "batch_normalization_87 (BatchNo (None, 8, 8, 48)     192         concatenate_83[0][0]             \n",
            "__________________________________________________________________________________________________\n",
            "activation_87 (Activation)      (None, 8, 8, 48)     0           batch_normalization_87[0][0]     \n",
            "__________________________________________________________________________________________________\n",
            "conv2d_87 (Conv2D)              (None, 8, 8, 12)     5184        activation_87[0][0]              \n",
            "__________________________________________________________________________________________________\n",
            "dropout_86 (Dropout)            (None, 8, 8, 12)     0           conv2d_87[0][0]                  \n",
            "__________________________________________________________________________________________________\n",
            "concatenate_84 (Concatenate)    (None, 8, 8, 60)     0           concatenate_83[0][0]             \n",
            "                                                                 dropout_86[0][0]                 \n",
            "__________________________________________________________________________________________________\n",
            "batch_normalization_88 (BatchNo (None, 8, 8, 60)     240         concatenate_84[0][0]             \n",
            "__________________________________________________________________________________________________\n",
            "activation_88 (Activation)      (None, 8, 8, 60)     0           batch_normalization_88[0][0]     \n",
            "__________________________________________________________________________________________________\n",
            "conv2d_88 (Conv2D)              (None, 8, 8, 12)     6480        activation_88[0][0]              \n",
            "__________________________________________________________________________________________________\n",
            "dropout_87 (Dropout)            (None, 8, 8, 12)     0           conv2d_88[0][0]                  \n",
            "__________________________________________________________________________________________________\n",
            "concatenate_85 (Concatenate)    (None, 8, 8, 72)     0           concatenate_84[0][0]             \n",
            "                                                                 dropout_87[0][0]                 \n",
            "__________________________________________________________________________________________________\n",
            "batch_normalization_89 (BatchNo (None, 8, 8, 72)     288         concatenate_85[0][0]             \n",
            "__________________________________________________________________________________________________\n",
            "activation_89 (Activation)      (None, 8, 8, 72)     0           batch_normalization_89[0][0]     \n",
            "__________________________________________________________________________________________________\n",
            "conv2d_89 (Conv2D)              (None, 8, 8, 12)     7776        activation_89[0][0]              \n",
            "__________________________________________________________________________________________________\n",
            "dropout_88 (Dropout)            (None, 8, 8, 12)     0           conv2d_89[0][0]                  \n",
            "__________________________________________________________________________________________________\n",
            "concatenate_86 (Concatenate)    (None, 8, 8, 84)     0           concatenate_85[0][0]             \n",
            "                                                                 dropout_88[0][0]                 \n",
            "__________________________________________________________________________________________________\n",
            "batch_normalization_90 (BatchNo (None, 8, 8, 84)     336         concatenate_86[0][0]             \n",
            "__________________________________________________________________________________________________\n",
            "activation_90 (Activation)      (None, 8, 8, 84)     0           batch_normalization_90[0][0]     \n",
            "__________________________________________________________________________________________________\n",
            "conv2d_90 (Conv2D)              (None, 8, 8, 12)     9072        activation_90[0][0]              \n",
            "__________________________________________________________________________________________________\n",
            "dropout_89 (Dropout)            (None, 8, 8, 12)     0           conv2d_90[0][0]                  \n",
            "__________________________________________________________________________________________________\n",
            "concatenate_87 (Concatenate)    (None, 8, 8, 96)     0           concatenate_86[0][0]             \n",
            "                                                                 dropout_89[0][0]                 \n",
            "__________________________________________________________________________________________________\n",
            "batch_normalization_91 (BatchNo (None, 8, 8, 96)     384         concatenate_87[0][0]             \n",
            "__________________________________________________________________________________________________\n",
            "activation_91 (Activation)      (None, 8, 8, 96)     0           batch_normalization_91[0][0]     \n",
            "__________________________________________________________________________________________________\n",
            "conv2d_91 (Conv2D)              (None, 8, 8, 12)     10368       activation_91[0][0]              \n",
            "__________________________________________________________________________________________________\n",
            "dropout_90 (Dropout)            (None, 8, 8, 12)     0           conv2d_91[0][0]                  \n",
            "__________________________________________________________________________________________________\n",
            "concatenate_88 (Concatenate)    (None, 8, 8, 108)    0           concatenate_87[0][0]             \n",
            "                                                                 dropout_90[0][0]                 \n",
            "__________________________________________________________________________________________________\n",
            "batch_normalization_92 (BatchNo (None, 8, 8, 108)    432         concatenate_88[0][0]             \n",
            "__________________________________________________________________________________________________\n",
            "activation_92 (Activation)      (None, 8, 8, 108)    0           batch_normalization_92[0][0]     \n",
            "__________________________________________________________________________________________________\n",
            "conv2d_92 (Conv2D)              (None, 8, 8, 12)     11664       activation_92[0][0]              \n",
            "__________________________________________________________________________________________________\n",
            "dropout_91 (Dropout)            (None, 8, 8, 12)     0           conv2d_92[0][0]                  \n",
            "__________________________________________________________________________________________________\n",
            "concatenate_89 (Concatenate)    (None, 8, 8, 120)    0           concatenate_88[0][0]             \n",
            "                                                                 dropout_91[0][0]                 \n",
            "__________________________________________________________________________________________________\n",
            "batch_normalization_93 (BatchNo (None, 8, 8, 120)    480         concatenate_89[0][0]             \n",
            "__________________________________________________________________________________________________\n",
            "activation_93 (Activation)      (None, 8, 8, 120)    0           batch_normalization_93[0][0]     \n",
            "__________________________________________________________________________________________________\n",
            "conv2d_93 (Conv2D)              (None, 8, 8, 12)     12960       activation_93[0][0]              \n",
            "__________________________________________________________________________________________________\n",
            "dropout_92 (Dropout)            (None, 8, 8, 12)     0           conv2d_93[0][0]                  \n",
            "__________________________________________________________________________________________________\n",
            "concatenate_90 (Concatenate)    (None, 8, 8, 132)    0           concatenate_89[0][0]             \n",
            "                                                                 dropout_92[0][0]                 \n",
            "__________________________________________________________________________________________________\n",
            "batch_normalization_94 (BatchNo (None, 8, 8, 132)    528         concatenate_90[0][0]             \n",
            "__________________________________________________________________________________________________\n",
            "activation_94 (Activation)      (None, 8, 8, 132)    0           batch_normalization_94[0][0]     \n",
            "__________________________________________________________________________________________________\n",
            "conv2d_94 (Conv2D)              (None, 8, 8, 12)     14256       activation_94[0][0]              \n",
            "__________________________________________________________________________________________________\n",
            "dropout_93 (Dropout)            (None, 8, 8, 12)     0           conv2d_94[0][0]                  \n",
            "__________________________________________________________________________________________________\n",
            "concatenate_91 (Concatenate)    (None, 8, 8, 144)    0           concatenate_90[0][0]             \n",
            "                                                                 dropout_93[0][0]                 \n",
            "__________________________________________________________________________________________________\n",
            "batch_normalization_95 (BatchNo (None, 8, 8, 144)    576         concatenate_91[0][0]             \n",
            "__________________________________________________________________________________________________\n",
            "activation_95 (Activation)      (None, 8, 8, 144)    0           batch_normalization_95[0][0]     \n",
            "__________________________________________________________________________________________________\n",
            "conv2d_95 (Conv2D)              (None, 8, 8, 12)     15552       activation_95[0][0]              \n",
            "__________________________________________________________________________________________________\n",
            "dropout_94 (Dropout)            (None, 8, 8, 12)     0           conv2d_95[0][0]                  \n",
            "__________________________________________________________________________________________________\n",
            "concatenate_92 (Concatenate)    (None, 8, 8, 156)    0           concatenate_91[0][0]             \n",
            "                                                                 dropout_94[0][0]                 \n",
            "__________________________________________________________________________________________________\n",
            "batch_normalization_96 (BatchNo (None, 8, 8, 156)    624         concatenate_92[0][0]             \n",
            "__________________________________________________________________________________________________\n",
            "activation_96 (Activation)      (None, 8, 8, 156)    0           batch_normalization_96[0][0]     \n",
            "__________________________________________________________________________________________________\n",
            "conv2d_96 (Conv2D)              (None, 8, 8, 12)     16848       activation_96[0][0]              \n",
            "__________________________________________________________________________________________________\n",
            "dropout_95 (Dropout)            (None, 8, 8, 12)     0           conv2d_96[0][0]                  \n",
            "__________________________________________________________________________________________________\n",
            "concatenate_93 (Concatenate)    (None, 8, 8, 168)    0           concatenate_92[0][0]             \n",
            "                                                                 dropout_95[0][0]                 \n",
            "__________________________________________________________________________________________________\n",
            "batch_normalization_97 (BatchNo (None, 8, 8, 168)    672         concatenate_93[0][0]             \n",
            "__________________________________________________________________________________________________\n",
            "activation_97 (Activation)      (None, 8, 8, 168)    0           batch_normalization_97[0][0]     \n",
            "__________________________________________________________________________________________________\n",
            "conv2d_97 (Conv2D)              (None, 8, 8, 12)     18144       activation_97[0][0]              \n",
            "__________________________________________________________________________________________________\n",
            "dropout_96 (Dropout)            (None, 8, 8, 12)     0           conv2d_97[0][0]                  \n",
            "__________________________________________________________________________________________________\n",
            "concatenate_94 (Concatenate)    (None, 8, 8, 180)    0           concatenate_93[0][0]             \n",
            "                                                                 dropout_96[0][0]                 \n",
            "__________________________________________________________________________________________________\n",
            "batch_normalization_98 (BatchNo (None, 8, 8, 180)    720         concatenate_94[0][0]             \n",
            "__________________________________________________________________________________________________\n",
            "activation_98 (Activation)      (None, 8, 8, 180)    0           batch_normalization_98[0][0]     \n",
            "__________________________________________________________________________________________________\n",
            "conv2d_98 (Conv2D)              (None, 8, 8, 12)     19440       activation_98[0][0]              \n",
            "__________________________________________________________________________________________________\n",
            "dropout_97 (Dropout)            (None, 8, 8, 12)     0           conv2d_98[0][0]                  \n",
            "__________________________________________________________________________________________________\n",
            "concatenate_95 (Concatenate)    (None, 8, 8, 192)    0           concatenate_94[0][0]             \n",
            "                                                                 dropout_97[0][0]                 \n",
            "__________________________________________________________________________________________________\n",
            "batch_normalization_99 (BatchNo (None, 8, 8, 192)    768         concatenate_95[0][0]             \n",
            "__________________________________________________________________________________________________\n",
            "activation_99 (Activation)      (None, 8, 8, 192)    0           batch_normalization_99[0][0]     \n",
            "__________________________________________________________________________________________________\n",
            "conv2d_99 (Conv2D)              (None, 8, 8, 12)     20736       activation_99[0][0]              \n",
            "__________________________________________________________________________________________________\n",
            "dropout_98 (Dropout)            (None, 8, 8, 12)     0           conv2d_99[0][0]                  \n",
            "__________________________________________________________________________________________________\n",
            "concatenate_96 (Concatenate)    (None, 8, 8, 204)    0           concatenate_95[0][0]             \n",
            "                                                                 dropout_98[0][0]                 \n",
            "__________________________________________________________________________________________________\n",
            "batch_normalization_100 (BatchN (None, 8, 8, 204)    816         concatenate_96[0][0]             \n",
            "__________________________________________________________________________________________________\n",
            "activation_100 (Activation)     (None, 8, 8, 204)    0           batch_normalization_100[0][0]    \n",
            "__________________________________________________________________________________________________\n",
            "conv2d_100 (Conv2D)             (None, 8, 8, 12)     22032       activation_100[0][0]             \n",
            "__________________________________________________________________________________________________\n",
            "dropout_99 (Dropout)            (None, 8, 8, 12)     0           conv2d_100[0][0]                 \n",
            "__________________________________________________________________________________________________\n",
            "concatenate_97 (Concatenate)    (None, 8, 8, 216)    0           concatenate_96[0][0]             \n",
            "                                                                 dropout_99[0][0]                 \n",
            "__________________________________________________________________________________________________\n",
            "batch_normalization_101 (BatchN (None, 8, 8, 216)    864         concatenate_97[0][0]             \n",
            "__________________________________________________________________________________________________\n",
            "activation_101 (Activation)     (None, 8, 8, 216)    0           batch_normalization_101[0][0]    \n",
            "__________________________________________________________________________________________________\n",
            "conv2d_101 (Conv2D)             (None, 8, 8, 12)     23328       activation_101[0][0]             \n",
            "__________________________________________________________________________________________________\n",
            "dropout_100 (Dropout)           (None, 8, 8, 12)     0           conv2d_101[0][0]                 \n",
            "__________________________________________________________________________________________________\n",
            "concatenate_98 (Concatenate)    (None, 8, 8, 228)    0           concatenate_97[0][0]             \n",
            "                                                                 dropout_100[0][0]                \n",
            "__________________________________________________________________________________________________\n",
            "batch_normalization_102 (BatchN (None, 8, 8, 228)    912         concatenate_98[0][0]             \n",
            "__________________________________________________________________________________________________\n",
            "activation_102 (Activation)     (None, 8, 8, 228)    0           batch_normalization_102[0][0]    \n",
            "__________________________________________________________________________________________________\n",
            "conv2d_102 (Conv2D)             (None, 8, 8, 12)     24624       activation_102[0][0]             \n",
            "__________________________________________________________________________________________________\n",
            "dropout_101 (Dropout)           (None, 8, 8, 12)     0           conv2d_102[0][0]                 \n",
            "__________________________________________________________________________________________________\n",
            "concatenate_99 (Concatenate)    (None, 8, 8, 240)    0           concatenate_98[0][0]             \n",
            "                                                                 dropout_101[0][0]                \n",
            "__________________________________________________________________________________________________\n",
            "batch_normalization_103 (BatchN (None, 8, 8, 240)    960         concatenate_99[0][0]             \n",
            "__________________________________________________________________________________________________\n",
            "activation_103 (Activation)     (None, 8, 8, 240)    0           batch_normalization_103[0][0]    \n",
            "__________________________________________________________________________________________________\n",
            "conv2d_103 (Conv2D)             (None, 8, 8, 12)     25920       activation_103[0][0]             \n",
            "__________________________________________________________________________________________________\n",
            "dropout_102 (Dropout)           (None, 8, 8, 12)     0           conv2d_103[0][0]                 \n",
            "__________________________________________________________________________________________________\n",
            "concatenate_100 (Concatenate)   (None, 8, 8, 252)    0           concatenate_99[0][0]             \n",
            "                                                                 dropout_102[0][0]                \n",
            "__________________________________________________________________________________________________\n",
            "batch_normalization_104 (BatchN (None, 8, 8, 252)    1008        concatenate_100[0][0]            \n",
            "__________________________________________________________________________________________________\n",
            "activation_104 (Activation)     (None, 8, 8, 252)    0           batch_normalization_104[0][0]    \n",
            "__________________________________________________________________________________________________\n",
            "conv2d_104 (Conv2D)             (None, 8, 8, 12)     27216       activation_104[0][0]             \n",
            "__________________________________________________________________________________________________\n",
            "dropout_103 (Dropout)           (None, 8, 8, 12)     0           conv2d_104[0][0]                 \n",
            "__________________________________________________________________________________________________\n",
            "concatenate_101 (Concatenate)   (None, 8, 8, 264)    0           concatenate_100[0][0]            \n",
            "                                                                 dropout_103[0][0]                \n",
            "__________________________________________________________________________________________________\n",
            "batch_normalization_105 (BatchN (None, 8, 8, 264)    1056        concatenate_101[0][0]            \n",
            "__________________________________________________________________________________________________\n",
            "activation_105 (Activation)     (None, 8, 8, 264)    0           batch_normalization_105[0][0]    \n",
            "__________________________________________________________________________________________________\n",
            "conv2d_105 (Conv2D)             (None, 8, 8, 12)     28512       activation_105[0][0]             \n",
            "__________________________________________________________________________________________________\n",
            "dropout_104 (Dropout)           (None, 8, 8, 12)     0           conv2d_105[0][0]                 \n",
            "__________________________________________________________________________________________________\n",
            "concatenate_102 (Concatenate)   (None, 8, 8, 276)    0           concatenate_101[0][0]            \n",
            "                                                                 dropout_104[0][0]                \n",
            "__________________________________________________________________________________________________\n",
            "batch_normalization_106 (BatchN (None, 8, 8, 276)    1104        concatenate_102[0][0]            \n",
            "__________________________________________________________________________________________________\n",
            "activation_106 (Activation)     (None, 8, 8, 276)    0           batch_normalization_106[0][0]    \n",
            "__________________________________________________________________________________________________\n",
            "conv2d_106 (Conv2D)             (None, 8, 8, 12)     29808       activation_106[0][0]             \n",
            "__________________________________________________________________________________________________\n",
            "dropout_105 (Dropout)           (None, 8, 8, 12)     0           conv2d_106[0][0]                 \n",
            "__________________________________________________________________________________________________\n",
            "concatenate_103 (Concatenate)   (None, 8, 8, 288)    0           concatenate_102[0][0]            \n",
            "                                                                 dropout_105[0][0]                \n",
            "__________________________________________________________________________________________________\n",
            "batch_normalization_107 (BatchN (None, 8, 8, 288)    1152        concatenate_103[0][0]            \n",
            "__________________________________________________________________________________________________\n",
            "activation_107 (Activation)     (None, 8, 8, 288)    0           batch_normalization_107[0][0]    \n",
            "__________________________________________________________________________________________________\n",
            "conv2d_107 (Conv2D)             (None, 8, 8, 12)     31104       activation_107[0][0]             \n",
            "__________________________________________________________________________________________________\n",
            "dropout_106 (Dropout)           (None, 8, 8, 12)     0           conv2d_107[0][0]                 \n",
            "__________________________________________________________________________________________________\n",
            "concatenate_104 (Concatenate)   (None, 8, 8, 300)    0           concatenate_103[0][0]            \n",
            "                                                                 dropout_106[0][0]                \n",
            "__________________________________________________________________________________________________\n",
            "batch_normalization_108 (BatchN (None, 8, 8, 300)    1200        concatenate_104[0][0]            \n",
            "__________________________________________________________________________________________________\n",
            "activation_108 (Activation)     (None, 8, 8, 300)    0           batch_normalization_108[0][0]    \n",
            "__________________________________________________________________________________________________\n",
            "conv2d_108 (Conv2D)             (None, 8, 8, 12)     32400       activation_108[0][0]             \n",
            "__________________________________________________________________________________________________\n",
            "dropout_107 (Dropout)           (None, 8, 8, 12)     0           conv2d_108[0][0]                 \n",
            "__________________________________________________________________________________________________\n",
            "concatenate_105 (Concatenate)   (None, 8, 8, 312)    0           concatenate_104[0][0]            \n",
            "                                                                 dropout_107[0][0]                \n",
            "__________________________________________________________________________________________________\n",
            "batch_normalization_109 (BatchN (None, 8, 8, 312)    1248        concatenate_105[0][0]            \n",
            "__________________________________________________________________________________________________\n",
            "activation_109 (Activation)     (None, 8, 8, 312)    0           batch_normalization_109[0][0]    \n",
            "__________________________________________________________________________________________________\n",
            "conv2d_109 (Conv2D)             (None, 8, 8, 12)     33696       activation_109[0][0]             \n",
            "__________________________________________________________________________________________________\n",
            "dropout_108 (Dropout)           (None, 8, 8, 12)     0           conv2d_109[0][0]                 \n",
            "__________________________________________________________________________________________________\n",
            "concatenate_106 (Concatenate)   (None, 8, 8, 324)    0           concatenate_105[0][0]            \n",
            "                                                                 dropout_108[0][0]                \n",
            "__________________________________________________________________________________________________\n",
            "batch_normalization_110 (BatchN (None, 8, 8, 324)    1296        concatenate_106[0][0]            \n",
            "__________________________________________________________________________________________________\n",
            "activation_110 (Activation)     (None, 8, 8, 324)    0           batch_normalization_110[0][0]    \n",
            "__________________________________________________________________________________________________\n",
            "conv2d_110 (Conv2D)             (None, 8, 8, 12)     34992       activation_110[0][0]             \n",
            "__________________________________________________________________________________________________\n",
            "dropout_109 (Dropout)           (None, 8, 8, 12)     0           conv2d_110[0][0]                 \n",
            "__________________________________________________________________________________________________\n",
            "concatenate_107 (Concatenate)   (None, 8, 8, 336)    0           concatenate_106[0][0]            \n",
            "                                                                 dropout_109[0][0]                \n",
            "__________________________________________________________________________________________________\n",
            "batch_normalization_111 (BatchN (None, 8, 8, 336)    1344        concatenate_107[0][0]            \n",
            "__________________________________________________________________________________________________\n",
            "activation_111 (Activation)     (None, 8, 8, 336)    0           batch_normalization_111[0][0]    \n",
            "__________________________________________________________________________________________________\n",
            "conv2d_111 (Conv2D)             (None, 8, 8, 12)     36288       activation_111[0][0]             \n",
            "__________________________________________________________________________________________________\n",
            "dropout_110 (Dropout)           (None, 8, 8, 12)     0           conv2d_111[0][0]                 \n",
            "__________________________________________________________________________________________________\n",
            "concatenate_108 (Concatenate)   (None, 8, 8, 348)    0           concatenate_107[0][0]            \n",
            "                                                                 dropout_110[0][0]                \n",
            "__________________________________________________________________________________________________\n",
            "batch_normalization_112 (BatchN (None, 8, 8, 348)    1392        concatenate_108[0][0]            \n",
            "__________________________________________________________________________________________________\n",
            "activation_112 (Activation)     (None, 8, 8, 348)    0           batch_normalization_112[0][0]    \n",
            "__________________________________________________________________________________________________\n",
            "conv2d_112 (Conv2D)             (None, 8, 8, 12)     37584       activation_112[0][0]             \n",
            "__________________________________________________________________________________________________\n",
            "dropout_111 (Dropout)           (None, 8, 8, 12)     0           conv2d_112[0][0]                 \n",
            "__________________________________________________________________________________________________\n",
            "concatenate_109 (Concatenate)   (None, 8, 8, 360)    0           concatenate_108[0][0]            \n",
            "                                                                 dropout_111[0][0]                \n",
            "__________________________________________________________________________________________________\n",
            "batch_normalization_113 (BatchN (None, 8, 8, 360)    1440        concatenate_109[0][0]            \n",
            "__________________________________________________________________________________________________\n",
            "activation_113 (Activation)     (None, 8, 8, 360)    0           batch_normalization_113[0][0]    \n",
            "__________________________________________________________________________________________________\n",
            "conv2d_113 (Conv2D)             (None, 8, 8, 12)     38880       activation_113[0][0]             \n",
            "__________________________________________________________________________________________________\n",
            "dropout_112 (Dropout)           (None, 8, 8, 12)     0           conv2d_113[0][0]                 \n",
            "__________________________________________________________________________________________________\n",
            "concatenate_110 (Concatenate)   (None, 8, 8, 372)    0           concatenate_109[0][0]            \n",
            "                                                                 dropout_112[0][0]                \n",
            "__________________________________________________________________________________________________\n",
            "batch_normalization_114 (BatchN (None, 8, 8, 372)    1488        concatenate_110[0][0]            \n",
            "__________________________________________________________________________________________________\n",
            "activation_114 (Activation)     (None, 8, 8, 372)    0           batch_normalization_114[0][0]    \n",
            "__________________________________________________________________________________________________\n",
            "conv2d_114 (Conv2D)             (None, 8, 8, 12)     40176       activation_114[0][0]             \n",
            "__________________________________________________________________________________________________\n",
            "dropout_113 (Dropout)           (None, 8, 8, 12)     0           conv2d_114[0][0]                 \n",
            "__________________________________________________________________________________________________\n",
            "concatenate_111 (Concatenate)   (None, 8, 8, 384)    0           concatenate_110[0][0]            \n",
            "                                                                 dropout_113[0][0]                \n",
            "__________________________________________________________________________________________________\n",
            "batch_normalization_115 (BatchN (None, 8, 8, 384)    1536        concatenate_111[0][0]            \n",
            "__________________________________________________________________________________________________\n",
            "activation_115 (Activation)     (None, 8, 8, 384)    0           batch_normalization_115[0][0]    \n",
            "__________________________________________________________________________________________________\n",
            "conv2d_115 (Conv2D)             (None, 8, 8, 12)     41472       activation_115[0][0]             \n",
            "__________________________________________________________________________________________________\n",
            "dropout_114 (Dropout)           (None, 8, 8, 12)     0           conv2d_115[0][0]                 \n",
            "__________________________________________________________________________________________________\n",
            "concatenate_112 (Concatenate)   (None, 8, 8, 396)    0           concatenate_111[0][0]            \n",
            "                                                                 dropout_114[0][0]                \n",
            "__________________________________________________________________________________________________\n",
            "batch_normalization_116 (BatchN (None, 8, 8, 396)    1584        concatenate_112[0][0]            \n",
            "__________________________________________________________________________________________________\n",
            "activation_116 (Activation)     (None, 8, 8, 396)    0           batch_normalization_116[0][0]    \n",
            "__________________________________________________________________________________________________\n",
            "conv2d_116 (Conv2D)             (None, 8, 8, 12)     42768       activation_116[0][0]             \n",
            "__________________________________________________________________________________________________\n",
            "dropout_115 (Dropout)           (None, 8, 8, 12)     0           conv2d_116[0][0]                 \n",
            "__________________________________________________________________________________________________\n",
            "concatenate_113 (Concatenate)   (None, 8, 8, 408)    0           concatenate_112[0][0]            \n",
            "                                                                 dropout_115[0][0]                \n",
            "__________________________________________________________________________________________________\n",
            "batch_normalization_117 (BatchN (None, 8, 8, 408)    1632        concatenate_113[0][0]            \n",
            "__________________________________________________________________________________________________\n",
            "activation_117 (Activation)     (None, 8, 8, 408)    0           batch_normalization_117[0][0]    \n",
            "__________________________________________________________________________________________________\n",
            "conv2d_117 (Conv2D)             (None, 8, 8, 12)     44064       activation_117[0][0]             \n",
            "__________________________________________________________________________________________________\n",
            "dropout_116 (Dropout)           (None, 8, 8, 12)     0           conv2d_117[0][0]                 \n",
            "__________________________________________________________________________________________________\n",
            "concatenate_114 (Concatenate)   (None, 8, 8, 420)    0           concatenate_113[0][0]            \n",
            "                                                                 dropout_116[0][0]                \n",
            "__________________________________________________________________________________________________\n",
            "batch_normalization_118 (BatchN (None, 8, 8, 420)    1680        concatenate_114[0][0]            \n",
            "__________________________________________________________________________________________________\n",
            "activation_118 (Activation)     (None, 8, 8, 420)    0           batch_normalization_118[0][0]    \n",
            "__________________________________________________________________________________________________\n",
            "conv2d_118 (Conv2D)             (None, 8, 8, 12)     45360       activation_118[0][0]             \n",
…
            "batch_normalization_127 (BatchN (None, 4, 4, 36)     144         concatenate_122[0][0]            \n",
            "__________________________________________________________________________________________________\n",
            "activation_127 (Activation)     (None, 4, 4, 36)     0           batch_normalization_127[0][0]    \n",
            "__________________________________________________________________________________________________\n",
            "conv2d_127 (Conv2D)             (None, 4, 4, 12)     3888        activation_127[0][0]             \n",
            "__________________________________________________________________________________________________\n",
            "dropout_126 (Dropout)           (None, 4, 4, 12)     0           conv2d_127[0][0]                 \n",
            "__________________________________________________________________________________________________\n",
            "concatenate_123 (Concatenate)   (None, 4, 4, 48)     0           concatenate_122[0][0]            \n",
            "                                                                 dropout_126[0][0]                \n",
            "__________________________________________________________________________________________________\n",
            "batch_normalization_128 (BatchN (None, 4, 4, 48)     192         concatenate_123[0][0]            \n",
            "__________________________________________________________________________________________________\n",
            "activation_128 (Activation)     (None, 4, 4, 48)     0           batch_normalization_128[0][0]    \n",
            "__________________________________________________________________________________________________\n",
            "conv2d_128 (Conv2D)             (None, 4, 4, 12)     5184        activation_128[0][0]             \n",
            "__________________________________________________________________________________________________\n",
            "dropout_127 (Dropout)           (None, 4, 4, 12)     0           conv2d_128[0][0]                 \n",
            "__________________________________________________________________________________________________\n",
            "concatenate_124 (Concatenate)   (None, 4, 4, 60)     0           concatenate_123[0][0]            \n",
            "                                                                 dropout_127[0][0]                \n",
            "__________________________________________________________________________________________________\n",
            "batch_normalization_129 (BatchN (None, 4, 4, 60)     240         concatenate_124[0][0]            \n",
            "__________________________________________________________________________________________________\n",
            "activation_129 (Activation)     (None, 4, 4, 60)     0           batch_normalization_129[0][0]    \n",
            "__________________________________________________________________________________________________\n",
            "conv2d_129 (Conv2D)             (None, 4, 4, 12)     6480        activation_129[0][0]             \n",
            "__________________________________________________________________________________________________\n",
            "dropout_128 (Dropout)           (None, 4, 4, 12)     0           conv2d_129[0][0]                 \n",
            "__________________________________________________________________________________________________\n",
            "concatenate_125 (Concatenate)   (None, 4, 4, 72)     0           concatenate_124[0][0]            \n",
            "                                                                 dropout_128[0][0]                \n",
            "__________________________________________________________________________________________________\n",
            "batch_normalization_130 (BatchN (None, 4, 4, 72)     288         concatenate_125[0][0]            \n",
            "__________________________________________________________________________________________________\n",
            "activation_130 (Activation)     (None, 4, 4, 72)     0           batch_normalization_130[0][0]    \n",
            "__________________________________________________________________________________________________\n",
            "conv2d_130 (Conv2D)             (None, 4, 4, 12)     7776        activation_130[0][0]             \n",
            "__________________________________________________________________________________________________\n",
            "dropout_129 (Dropout)           (None, 4, 4, 12)     0           conv2d_130[0][0]                 \n",
            "__________________________________________________________________________________________________\n",
            "concatenate_126 (Concatenate)   (None, 4, 4, 84)     0           concatenate_125[0][0]            \n",
            "                                                                 dropout_129[0][0]                \n",
            "__________________________________________________________________________________________________\n",
            "batch_normalization_131 (BatchN (None, 4, 4, 84)     336         concatenate_126[0][0]            \n",
            "__________________________________________________________________________________________________\n",
            "activation_131 (Activation)     (None, 4, 4, 84)     0           batch_normalization_131[0][0]    \n",
            "__________________________________________________________________________________________________\n",
            "conv2d_131 (Conv2D)             (None, 4, 4, 12)     9072        activation_131[0][0]             \n",
            "__________________________________________________________________________________________________\n",
            "dropout_130 (Dropout)           (None, 4, 4, 12)     0           conv2d_131[0][0]                 \n",
            "__________________________________________________________________________________________________\n",
            "concatenate_127 (Concatenate)   (None, 4, 4, 96)     0           concatenate_126[0][0]            \n",
            "                                                                 dropout_130[0][0]                \n",
            "__________________________________________________________________________________________________\n",
            "batch_normalization_132 (BatchN (None, 4, 4, 96)     384         concatenate_127[0][0]            \n",
            "__________________________________________________________________________________________________\n",
            "activation_132 (Activation)     (None, 4, 4, 96)     0           batch_normalization_132[0][0]    \n",
            "__________________________________________________________________________________________________\n",
            "conv2d_132 (Conv2D)             (None, 4, 4, 12)     10368       activation_132[0][0]             \n",
            "__________________________________________________________________________________________________\n",
            "dropout_131 (Dropout)           (None, 4, 4, 12)     0           conv2d_132[0][0]                 \n",
            "__________________________________________________________________________________________________\n",
            "concatenate_128 (Concatenate)   (None, 4, 4, 108)    0           concatenate_127[0][0]            \n",
            "                                                                 dropout_131[0][0]                \n",
            "__________________________________________________________________________________________________\n",
            "batch_normalization_133 (BatchN (None, 4, 4, 108)    432         concatenate_128[0][0]            \n",
            "__________________________________________________________________________________________________\n",
            "activation_133 (Activation)     (None, 4, 4, 108)    0           batch_normalization_133[0][0]    \n",
            "__________________________________________________________________________________________________\n",
            "conv2d_133 (Conv2D)             (None, 4, 4, 12)     11664       activation_133[0][0]             \n",
            "__________________________________________________________________________________________________\n",
            "dropout_132 (Dropout)           (None, 4, 4, 12)     0           conv2d_133[0][0]                 \n",
            "__________________________________________________________________________________________________\n",
            "concatenate_129 (Concatenate)   (None, 4, 4, 120)    0           concatenate_128[0][0]            \n",
            "                                                                 dropout_132[0][0]                \n",
            "__________________________________________________________________________________________________\n",
            "batch_normalization_134 (BatchN (None, 4, 4, 120)    480         concatenate_129[0][0]            \n",
            "__________________________________________________________________________________________________\n",
            "activation_134 (Activation)     (None, 4, 4, 120)    0           batch_normalization_134[0][0]    \n",
            "__________________________________________________________________________________________________\n",
            "conv2d_134 (Conv2D)             (None, 4, 4, 12)     12960       activation_134[0][0]             \n",
            "__________________________________________________________________________________________________\n",
            "dropout_133 (Dropout)           (None, 4, 4, 12)     0           conv2d_134[0][0]                 \n",
            "__________________________________________________________________________________________________\n",
            "concatenate_130 (Concatenate)   (None, 4, 4, 132)    0           concatenate_129[0][0]            \n",
            "                                                                 dropout_133[0][0]                \n",
            "__________________________________________________________________________________________________\n",
            "batch_normalization_135 (BatchN (None, 4, 4, 132)    528         concatenate_130[0][0]            \n",
            "__________________________________________________________________________________________________\n",
            "activation_135 (Activation)     (None, 4, 4, 132)    0           batch_normalization_135[0][0]    \n",
            "__________________________________________________________________________________________________\n",
            "conv2d_135 (Conv2D)             (None, 4, 4, 12)     14256       activation_135[0][0]             \n",
            "__________________________________________________________________________________________________\n",
            "dropout_134 (Dropout)           (None, 4, 4, 12)     0           conv2d_135[0][0]                 \n",
            "__________________________________________________________________________________________________\n",
            "concatenate_131 (Concatenate)   (None, 4, 4, 144)    0           concatenate_130[0][0]            \n",
            "                                                                 dropout_134[0][0]                \n",
            "__________________________________________________________________________________________________\n",
            "batch_normalization_136 (BatchN (None, 4, 4, 144)    576         concatenate_131[0][0]            \n",
            "__________________________________________________________________________________________________\n",
            "activation_136 (Activation)     (None, 4, 4, 144)    0           batch_normalization_136[0][0]    \n",
            "__________________________________________________________________________________________________\n",
            "conv2d_136 (Conv2D)             (None, 4, 4, 12)     15552       activation_136[0][0]             \n",
            "__________________________________________________________________________________________________\n",
            "dropout_135 (Dropout)           (None, 4, 4, 12)     0           conv2d_136[0][0]                 \n",
            "__________________________________________________________________________________________________\n",
            "concatenate_132 (Concatenate)   (None, 4, 4, 156)    0           concatenate_131[0][0]            \n",
            "                                                                 dropout_135[0][0]                \n",
            "__________________________________________________________________________________________________\n",
            "batch_normalization_137 (BatchN (None, 4, 4, 156)    624         concatenate_132[0][0]            \n",
            "__________________________________________________________________________________________________\n",
            "activation_137 (Activation)     (None, 4, 4, 156)    0           batch_normalization_137[0][0]    \n",
            "__________________________________________________________________________________________________\n",
            "conv2d_137 (Conv2D)             (None, 4, 4, 12)     16848       activation_137[0][0]             \n",
            "__________________________________________________________________________________________________\n",
            "dropout_136 (Dropout)           (None, 4, 4, 12)     0           conv2d_137[0][0]                 \n",
            "__________________________________________________________________________________________________\n",
            "concatenate_133 (Concatenate)   (None, 4, 4, 168)    0           concatenate_132[0][0]            \n",
            "                                                                 dropout_136[0][0]                \n",
            "__________________________________________________________________________________________________\n",
            "batch_normalization_138 (BatchN (None, 4, 4, 168)    672         concatenate_133[0][0]            \n",
            "__________________________________________________________________________________________________\n",
            "activation_138 (Activation)     (None, 4, 4, 168)    0           batch_normalization_138[0][0]    \n",
            "__________________________________________________________________________________________________\n",
            "conv2d_138 (Conv2D)             (None, 4, 4, 12)     18144       activation_138[0][0]             \n",
            "__________________________________________________________________________________________________\n",
            "dropout_137 (Dropout)           (None, 4, 4, 12)     0           conv2d_138[0][0]                 \n",
            "__________________________________________________________________________________________________\n",
            "concatenate_134 (Concatenate)   (None, 4, 4, 180)    0           concatenate_133[0][0]            \n",
            "                                                                 dropout_137[0][0]                \n",
            "__________________________________________________________________________________________________\n",
            "batch_normalization_139 (BatchN (None, 4, 4, 180)    720         concatenate_134[0][0]            \n",
            "__________________________________________________________________________________________________\n",
            "activation_139 (Activation)     (None, 4, 4, 180)    0           batch_normalization_139[0][0]    \n",
            "__________________________________________________________________________________________________\n",
            "conv2d_139 (Conv2D)             (None, 4, 4, 12)     19440       activation_139[0][0]             \n",
            "__________________________________________________________________________________________________\n",
            "dropout_138 (Dropout)           (None, 4, 4, 12)     0           conv2d_139[0][0]                 \n",
            "__________________________________________________________________________________________________\n",
            "concatenate_135 (Concatenate)   (None, 4, 4, 192)    0           concatenate_134[0][0]            \n",
            "                                                                 dropout_138[0][0]                \n",
            "__________________________________________________________________________________________________\n",
            "batch_normalization_140 (BatchN (None, 4, 4, 192)    768         concatenate_135[0][0]            \n",
            "__________________________________________________________________________________________________\n",
            "activation_140 (Activation)     (None, 4, 4, 192)    0           batch_normalization_140[0][0]    \n",
            "__________________________________________________________________________________________________\n",
            "conv2d_140 (Conv2D)             (None, 4, 4, 12)     20736       activation_140[0][0]             \n",
            "__________________________________________________________________________________________________\n",
            "dropout_139 (Dropout)           (None, 4, 4, 12)     0           conv2d_140[0][0]                 \n",
            "__________________________________________________________________________________________________\n",
            "concatenate_136 (Concatenate)   (None, 4, 4, 204)    0           concatenate_135[0][0]            \n",
            "                                                                 dropout_139[0][0]                \n",
            "__________________________________________________________________________________________________\n",
            "batch_normalization_141 (BatchN (None, 4, 4, 204)    816         concatenate_136[0][0]            \n",
            "__________________________________________________________________________________________________\n",
            "activation_141 (Activation)     (None, 4, 4, 204)    0           batch_normalization_141[0][0]    \n",
            "__________________________________________________________________________________________________\n",
            "conv2d_141 (Conv2D)             (None, 4, 4, 12)     22032       activation_141[0][0]             \n",
            "__________________________________________________________________________________________________\n",
            "dropout_140 (Dropout)           (None, 4, 4, 12)     0           conv2d_141[0][0]                 \n",
            "__________________________________________________________________________________________________\n",
            "concatenate_137 (Concatenate)   (None, 4, 4, 216)    0           concatenate_136[0][0]            \n",
            "                                                                 dropout_140[0][0]                \n",
            "__________________________________________________________________________________________________\n",
            "batch_normalization_142 (BatchN (None, 4, 4, 216)    864         concatenate_137[0][0]            \n",
            "__________________________________________________________________________________________________\n",
            "activation_142 (Activation)     (None, 4, 4, 216)    0           batch_normalization_142[0][0]    \n",
            "__________________________________________________________________________________________________\n",
            "conv2d_142 (Conv2D)             (None, 4, 4, 12)     23328       activation_142[0][0]             \n",
            "__________________________________________________________________________________________________\n",
            "dropout_141 (Dropout)           (None, 4, 4, 12)     0           conv2d_142[0][0]                 \n",
            "__________________________________________________________________________________________________\n",
            "concatenate_138 (Concatenate)   (None, 4, 4, 228)    0           concatenate_137[0][0]            \n",
            "                                                                 dropout_141[0][0]                \n",
            "__________________________________________________________________________________________________\n",
            "batch_normalization_143 (BatchN (None, 4, 4, 228)    912         concatenate_138[0][0]            \n",
            "__________________________________________________________________________________________________\n",
            "activation_143 (Activation)     (None, 4, 4, 228)    0           batch_normalization_143[0][0]    \n",
            "__________________________________________________________________________________________________\n",
            "conv2d_143 (Conv2D)             (None, 4, 4, 12)     24624       activation_143[0][0]             \n",
            "__________________________________________________________________________________________________\n",
            "dropout_142 (Dropout)           (None, 4, 4, 12)     0           conv2d_143[0][0]                 \n",
            "__________________________________________________________________________________________________\n",
            "concatenate_139 (Concatenate)   (None, 4, 4, 240)    0           concatenate_138[0][0]            \n",
            "                                                                 dropout_142[0][0]                \n",
            "__________________________________________________________________________________________________\n",
            "batch_normalization_144 (BatchN (None, 4, 4, 240)    960         concatenate_139[0][0]            \n",
            "__________________________________________________________________________________________________\n",
            "activation_144 (Activation)     (None, 4, 4, 240)    0           batch_normalization_144[0][0]    \n",
            "__________________________________________________________________________________________________\n",
            "conv2d_144 (Conv2D)             (None, 4, 4, 12)     25920       activation_144[0][0]             \n",
            "__________________________________________________________________________________________________\n",
            "dropout_143 (Dropout)           (None, 4, 4, 12)     0           conv2d_144[0][0]                 \n",
            "__________________________________________________________________________________________________\n",
            "concatenate_140 (Concatenate)   (None, 4, 4, 252)    0           concatenate_139[0][0]            \n",
            "                                                                 dropout_143[0][0]                \n",
            "__________________________________________________________________________________________________\n",
            "batch_normalization_145 (BatchN (None, 4, 4, 252)    1008        concatenate_140[0][0]            \n",
            "__________________________________________________________________________________________________\n",
            "activation_145 (Activation)     (None, 4, 4, 252)    0           batch_normalization_145[0][0]    \n",
            "__________________________________________________________________________________________________\n",
            "conv2d_145 (Conv2D)             (None, 4, 4, 12)     27216       activation_145[0][0]             \n",
            "__________________________________________________________________________________________________\n",
            "dropout_144 (Dropout)           (None, 4, 4, 12)     0           conv2d_145[0][0]                 \n",
            "__________________________________________________________________________________________________\n",
            "concatenate_141 (Concatenate)   (None, 4, 4, 264)    0           concatenate_140[0][0]            \n",
            "                                                                 dropout_144[0][0]                \n",
            "__________________________________________________________________________________________________\n",
            "batch_normalization_146 (BatchN (None, 4, 4, 264)    1056        concatenate_141[0][0]            \n",
            "__________________________________________________________________________________________________\n",
            "activation_146 (Activation)     (None, 4, 4, 264)    0           batch_normalization_146[0][0]    \n",
            "__________________________________________________________________________________________________\n",
            "conv2d_146 (Conv2D)             (None, 4, 4, 12)     28512       activation_146[0][0]             \n",
            "__________________________________________________________________________________________________\n",
            "dropout_145 (Dropout)           (None, 4, 4, 12)     0           conv2d_146[0][0]                 \n",
            "__________________________________________________________________________________________________\n",
            "concatenate_142 (Concatenate)   (None, 4, 4, 276)    0           concatenate_141[0][0]            \n",
            "                                                                 dropout_145[0][0]                \n",
            "__________________________________________________________________________________________________\n",
            "batch_normalization_147 (BatchN (None, 4, 4, 276)    1104        concatenate_142[0][0]            \n",
            "__________________________________________________________________________________________________\n",
            "activation_147 (Activation)     (None, 4, 4, 276)    0           batch_normalization_147[0][0]    \n",
            "__________________________________________________________________________________________________\n",
            "conv2d_147 (Conv2D)             (None, 4, 4, 12)     29808       activation_147[0][0]             \n",
            "__________________________________________________________________________________________________\n",
            "dropout_146 (Dropout)           (None, 4, 4, 12)     0           conv2d_147[0][0]                 \n",
            "__________________________________________________________________________________________________\n",
            "concatenate_143 (Concatenate)   (None, 4, 4, 288)    0           concatenate_142[0][0]            \n",
            "                                                                 dropout_146[0][0]                \n",
            "__________________________________________________________________________________________________\n",
            "batch_normalization_148 (BatchN (None, 4, 4, 288)    1152        concatenate_143[0][0]            \n",
            "__________________________________________________________________________________________________\n",
            "activation_148 (Activation)     (None, 4, 4, 288)    0           batch_normalization_148[0][0]    \n",
            "__________________________________________________________________________________________________\n",
            "conv2d_148 (Conv2D)             (None, 4, 4, 12)     31104       activation_148[0][0]             \n",
            "__________________________________________________________________________________________________\n",
            "dropout_147 (Dropout)           (None, 4, 4, 12)     0           conv2d_148[0][0]                 \n",
            "__________________________________________________________________________________________________\n",
            "concatenate_144 (Concatenate)   (None, 4, 4, 300)    0           concatenate_143[0][0]            \n",
            "                                                                 dropout_147[0][0]                \n",
            "__________________________________________________________________________________________________\n",
            "batch_normalization_149 (BatchN (None, 4, 4, 300)    1200        concatenate_144[0][0]            \n",
            "__________________________________________________________________________________________________\n",
            "activation_149 (Activation)     (None, 4, 4, 300)    0           batch_normalization_149[0][0]    \n",
            "__________________________________________________________________________________________________\n",
            "conv2d_149 (Conv2D)             (None, 4, 4, 12)     32400       activation_149[0][0]             \n",
            "__________________________________________________________________________________________________\n",
            "dropout_148 (Dropout)           (None, 4, 4, 12)     0           conv2d_149[0][0]                 \n",
            "__________________________________________________________________________________________________\n",
            "concatenate_145 (Concatenate)   (None, 4, 4, 312)    0           concatenate_144[0][0]            \n",
            "                                                                 dropout_148[0][0]                \n",
            "__________________________________________________________________________________________________\n",
            "batch_normalization_150 (BatchN (None, 4, 4, 312)    1248        concatenate_145[0][0]            \n",
            "__________________________________________________________________________________________________\n",
            "activation_150 (Activation)     (None, 4, 4, 312)    0           batch_normalization_150[0][0]    \n",
            "__________________________________________________________________________________________________\n",
            "conv2d_150 (Conv2D)             (None, 4, 4, 12)     33696       activation_150[0][0]             \n",
            "__________________________________________________________________________________________________\n",
            "dropout_149 (Dropout)           (None, 4, 4, 12)     0           conv2d_150[0][0]                 \n",
            "__________________________________________________________________________________________________\n",
            "concatenate_146 (Concatenate)   (None, 4, 4, 324)    0           concatenate_145[0][0]            \n",
            "                                                                 dropout_149[0][0]                \n",
            "__________________________________________________________________________________________________\n",
            "batch_normalization_151 (BatchN (None, 4, 4, 324)    1296        concatenate_146[0][0]            \n",
            "__________________________________________________________________________________________________\n",
            "activation_151 (Activation)     (None, 4, 4, 324)    0           batch_normalization_151[0][0]    \n",
            "__________________________________________________________________________________________________\n",
            "conv2d_151 (Conv2D)             (None, 4, 4, 12)     34992       activation_151[0][0]             \n",
            "__________________________________________________________________________________________________\n",
            "dropout_150 (Dropout)           (None, 4, 4, 12)     0           conv2d_151[0][0]                 \n",
            "__________________________________________________________________________________________________\n",
            "concatenate_147 (Concatenate)   (None, 4, 4, 336)    0           concatenate_146[0][0]            \n",
            "                                                                 dropout_150[0][0]                \n",
            "__________________________________________________________________________________________________\n",
            "batch_normalization_152 (BatchN (None, 4, 4, 336)    1344        concatenate_147[0][0]            \n",
            "__________________________________________________________________________________________________\n",
            "activation_152 (Activation)     (None, 4, 4, 336)    0           batch_normalization_152[0][0]    \n",
            "__________________________________________________________________________________________________\n",
            "conv2d_152 (Conv2D)             (None, 4, 4, 12)     36288       activation_152[0][0]             \n",
            "__________________________________________________________________________________________________\n",
            "dropout_151 (Dropout)           (None, 4, 4, 12)     0           conv2d_152[0][0]                 \n",
            "__________________________________________________________________________________________________\n",
            "concatenate_148 (Concatenate)   (None, 4, 4, 348)    0           concatenate_147[0][0]            \n",
            "                                                                 dropout_151[0][0]                \n",
            "__________________________________________________________________________________________________\n",
            "batch_normalization_153 (BatchN (None, 4, 4, 348)    1392        concatenate_148[0][0]            \n",
            "__________________________________________________________________________________________________\n",
            "activation_153 (Activation)     (None, 4, 4, 348)    0           batch_normalization_153[0][0]    \n",
            "__________________________________________________________________________________________________\n",
            "conv2d_153 (Conv2D)             (None, 4, 4, 12)     37584       activation_153[0][0]             \n",
            "__________________________________________________________________________________________________\n",
            "dropout_152 (Dropout)           (None, 4, 4, 12)     0           conv2d_153[0][0]                 \n",
            "__________________________________________________________________________________________________\n",
            "concatenate_149 (Concatenate)   (None, 4, 4, 360)    0           concatenate_148[0][0]            \n",
            "                                                                 dropout_152[0][0]                \n",
            "__________________________________________________________________________________________________\n",
            "batch_normalization_154 (BatchN (None, 4, 4, 360)    1440        concatenate_149[0][0]            \n",
            "__________________________________________________________________________________________________\n",
            "activation_154 (Activation)     (None, 4, 4, 360)    0           batch_normalization_154[0][0]    \n",
            "__________________________________________________________________________________________________\n",
            "conv2d_154 (Conv2D)             (None, 4, 4, 12)     38880       activation_154[0][0]             \n",
            "__________________________________________________________________________________________________\n",
            "dropout_153 (Dropout)           (None, 4, 4, 12)     0           conv2d_154[0][0]                 \n",
            "__________________________________________________________________________________________________\n",
            "concatenate_150 (Concatenate)   (None, 4, 4, 372)    0           concatenate_149[0][0]            \n",
            "                                                                 dropout_153[0][0]                \n",
            "__________________________________________________________________________________________________\n",
            "batch_normalization_155 (BatchN (None, 4, 4, 372)    1488        concatenate_150[0][0]            \n",
            "__________________________________________________________________________________________________\n",
            "activation_155 (Activation)     (None, 4, 4, 372)    0           batch_normalization_155[0][0]    \n",
            "__________________________________________________________________________________________________\n",
            "conv2d_155 (Conv2D)             (None, 4, 4, 12)     40176       activation_155[0][0]             \n",
            "__________________________________________________________________________________________________\n",
            "dropout_154 (Dropout)           (None, 4, 4, 12)     0           conv2d_155[0][0]                 \n",
            "__________________________________________________________________________________________________\n",
            "concatenate_151 (Concatenate)   (None, 4, 4, 384)    0           concatenate_150[0][0]            \n",
            "                                                                 dropout_154[0][0]                \n",
            "__________________________________________________________________________________________________\n",
            "batch_normalization_156 (BatchN (None, 4, 4, 384)    1536        concatenate_151[0][0]            \n",
            "__________________________________________________________________________________________________\n",
            "activation_156 (Activation)     (None, 4, 4, 384)    0           batch_normalization_156[0][0]    \n",
            "__________________________________________________________________________________________________\n",
            "conv2d_156 (Conv2D)             (None, 4, 4, 12)     41472       activation_156[0][0]             \n",
            "__________________________________________________________________________________________________\n",
            "dropout_155 (Dropout)           (None, 4, 4, 12)     0           conv2d_156[0][0]                 \n",
            "__________________________________________________________________________________________________\n",
            "concatenate_152 (Concatenate)   (None, 4, 4, 396)    0           concatenate_151[0][0]            \n",
            "                                                                 dropout_155[0][0]                \n",
            "__________________________________________________________________________________________________\n",
            "batch_normalization_157 (BatchN (None, 4, 4, 396)    1584        concatenate_152[0][0]            \n",
            "__________________________________________________________________________________________________\n",
            "activation_157 (Activation)     (None, 4, 4, 396)    0           batch_normalization_157[0][0]    \n",
            "__________________________________________________________________________________________________\n",
            "conv2d_157 (Conv2D)             (None, 4, 4, 12)     42768       activation_157[0][0]             \n",
            "__________________________________________________________________________________________________\n",
            "dropout_156 (Dropout)           (None, 4, 4, 12)     0           conv2d_157[0][0]                 \n",
            "__________________________________________________________________________________________________\n",
            "concatenate_153 (Concatenate)   (None, 4, 4, 408)    0           concatenate_152[0][0]            \n",
            "                                                                 dropout_156[0][0]                \n",
            "__________________________________________________________________________________________________\n",
            "batch_normalization_158 (BatchN (None, 4, 4, 408)    1632        concatenate_153[0][0]            \n",
            "__________________________________________________________________________________________________\n",
            "activation_158 (Activation)     (None, 4, 4, 408)    0           batch_normalization_158[0][0]    \n",
            "__________________________________________________________________________________________________\n",
            "conv2d_158 (Conv2D)             (None, 4, 4, 12)     44064       activation_158[0][0]             \n",
            "__________________________________________________________________________________________________\n",
            "dropout_157 (Dropout)           (None, 4, 4, 12)     0           conv2d_158[0][0]                 \n",
            "__________________________________________________________________________________________________\n",
            "concatenate_154 (Concatenate)   (None, 4, 4, 420)    0           concatenate_153[0][0]            \n",
            "                                                                 dropout_157[0][0]                \n",
            "__________________________________________________________________________________________________\n",
            "batch_normalization_159 (BatchN (None, 4, 4, 420)    1680        concatenate_154[0][0]            \n",
            "__________________________________________________________________________________________________\n",
            "activation_159 (Activation)     (None, 4, 4, 420)    0           batch_normalization_159[0][0]    \n",
            "__________________________________________________________________________________________________\n",
            "conv2d_159 (Conv2D)             (None, 4, 4, 12)     45360       activation_159[0][0]             \n",
            "__________________________________________________________________________________________________\n",
            "dropout_158 (Dropout)           (None, 4, 4, 12)     0           conv2d_159[0][0]                 \n",
            "__________________________________________________________________________________________________\n",
            "concatenate_155 (Concatenate)   (None, 4, 4, 432)    0           concatenate_154[0][0]            \n",
            "                                                                 dropout_158[0][0]                \n",
            "__________________________________________________________________________________________________\n",
            "batch_normalization_160 (BatchN (None, 4, 4, 432)    1728        concatenate_155[0][0]            \n",
            "__________________________________________________________________________________________________\n",
            "activation_160 (Activation)     (None, 4, 4, 432)    0           batch_normalization_160[0][0]    \n",
            "__________________________________________________________________________________________________\n",
            "conv2d_160 (Conv2D)             (None, 4, 4, 12)     46656       activation_160[0][0]             \n",
            "__________________________________________________________________________________________________\n",
            "dropout_159 (Dropout)           (None, 4, 4, 12)     0           conv2d_160[0][0]                 \n",
            "__________________________________________________________________________________________________\n",
            "concatenate_156 (Concatenate)   (None, 4, 4, 444)    0           concatenate_155[0][0]            \n",
            "                                                                 dropout_159[0][0]                \n",
            "__________________________________________________________________________________________________\n",
            "batch_normalization_161 (BatchN (None, 4, 4, 444)    1776        concatenate_156[0][0]            \n",
            "__________________________________________________________________________________________________\n",
            "activation_161 (Activation)     (None, 4, 4, 444)    0           batch_normalization_161[0][0]    \n",
            "__________________________________________________________________________________________________\n",
            "conv2d_161 (Conv2D)             (None, 4, 4, 12)     47952       activation_161[0][0]             \n",
            "__________________________________________________________________________________________________\n",
            "dropout_160 (Dropout)           (None, 4, 4, 12)     0           conv2d_161[0][0]                 \n",
            "__________________________________________________________________________________________________\n",
            "concatenate_157 (Concatenate)   (None, 4, 4, 456)    0           concatenate_156[0][0]            \n",
            "                                                                 dropout_160[0][0]                \n",
            "__________________________________________________________________________________________________\n",
            "batch_normalization_162 (BatchN (None, 4, 4, 456)    1824        concatenate_157[0][0]            \n",
            "__________________________________________________________________________________________________\n",
            "activation_162 (Activation)     (None, 4, 4, 456)    0           batch_normalization_162[0][0]    \n",
            "__________________________________________________________________________________________________\n",
            "conv2d_162 (Conv2D)             (None, 4, 4, 12)     49248       activation_162[0][0]             \n",
            "__________________________________________________________________________________________________\n",
            "dropout_161 (Dropout)           (None, 4, 4, 12)     0           conv2d_162[0][0]                 \n",
            "__________________________________________________________________________________________________\n",
            "concatenate_158 (Concatenate)   (None, 4, 4, 468)    0           concatenate_157[0][0]            \n",
            "                                                                 dropout_161[0][0]                \n",
            "__________________________________________________________________________________________________\n",
            "batch_normalization_163 (BatchN (None, 4, 4, 468)    1872        concatenate_158[0][0]            \n",
            "__________________________________________________________________________________________________\n",
            "activation_163 (Activation)     (None, 4, 4, 468)    0           batch_normalization_163[0][0]    \n",
            "__________________________________________________________________________________________________\n",
            "conv2d_163 (Conv2D)             (None, 4, 4, 12)     50544       activation_163[0][0]             \n",
            "__________________________________________________________________________________________________"
          ],
          "name": "stdout"
        },
        {
          "output_type": "stream",
          "text": [
            "\n",
            "dropout_162 (Dropout)           (None, 4, 4, 12)     0           conv2d_163[0][0]                 \n",
            "__________________________________________________________________________________________________\n",
            "concatenate_159 (Concatenate)   (None, 4, 4, 480)    0           concatenate_158[0][0]            \n",
            "                                                                 dropout_162[0][0]                \n",
            "__________________________________________________________________________________________________\n",
            "batch_normalization_164 (BatchN (None, 4, 4, 480)    1920        concatenate_159[0][0]            \n",
            "__________________________________________________________________________________________________\n",
            "activation_164 (Activation)     (None, 4, 4, 480)    0           batch_normalization_164[0][0]    \n",
            "__________________________________________________________________________________________________\n",
            "conv2d_164 (Conv2D)             (None, 4, 4, 12)     51840       activation_164[0][0]             \n",
            "__________________________________________________________________________________________________\n",
            "dropout_163 (Dropout)           (None, 4, 4, 12)     0           conv2d_164[0][0]                 \n",
            "__________________________________________________________________________________________________\n",
            "concatenate_160 (Concatenate)   (None, 4, 4, 492)    0           concatenate_159[0][0]            \n",
            "                                                                 dropout_163[0][0]                \n",
            "__________________________________________________________________________________________________\n",
            "batch_normalization_165 (BatchN (None, 4, 4, 492)    1968        concatenate_160[0][0]            \n",
            "__________________________________________________________________________________________________\n",
            "activation_165 (Activation)     (None, 4, 4, 492)    0           batch_normalization_165[0][0]    \n",
            "__________________________________________________________________________________________________\n",
            "average_pooling2d_4 (AveragePoo (None, 2, 2, 492)    0           activation_165[0][0]             \n",
            "__________________________________________________________________________________________________\n",
            "flatten_1 (Flatten)             (None, 1968)         0           average_pooling2d_4[0][0]        \n",
            "__________________________________________________________________________________________________\n",
            "dense_1 (Dense)                 (None, 10)           19690       flatten_1[0][0]                  \n",
            "==================================================================================================\n",
            "Total params: 4,508,206\n",
            "Trainable params: 4,424,560\n",
            "Non-trainable params: 83,646\n",
            "__________________________________________________________________________________________________\n"
…
